best_model.pt (torch, 102005 bytes, 10 tensors)

lstm.weight_ih_l0 f4 [128, 90]
00000000: 31c3 733d 2690 a43c 988e 28bc 2aab 36bc
00000010: 018a bdbd abca 463c 7da7 933d a242 023e
00000020: ee1f 5e3d 7c5e 693d 5777 593d 717c 56bd
00000030: 12d4 d43c 4c8f 40bd fb7e 3b3d f87e 36bd
00000040: 23e1 b3ba 988f c9bd f494 213c b81a e2bd
00000050: 1d51 93bd cc09 883d bea5 053d 98d0 863c
00000060: bc95 15bd b3a3 ea3d 31c3 c33b c2e6 5d3c
00000070: ff0b a5b9 749b ab01 ca99 97bb 9bd6 85bd
00000080: 7227 883c 1a4c 88bc ca38 80bc 5242 92bd
00000090: 904a b43c 6a86 eb3b 57f2 48bd 2bc3 23be
000000a0: d845 033d 195a e03d 4733 e03d bebe 1abe
000000b0: f5cf a23c 0084 a83b 3448 c13c 7cab e1bd
000000c0: fe70 613c 1257 613d 8457 923d 6b7e 0abd
000000d0: d3f2 b7ba c26e 7cbd 8160 19be 87af e4bc
000000e0: 8265 62ba a014 08be e23b 903c 41f5 ad3d
000000f0: 1bd9 86be a87b 0c3e 47fe 27be 43d0 28be
00000100: 293c 26be 6113 d5bd 32c0 d83c 7903 153d
00000110: b951 3c3d e9ab 66bd 07a8 ba3a 078c 86bd
00000120: 8394 ccbd 659a eebd c95e 8cbd 62df 1cbe
00000130: b4b1 bd3d 83ee a33d f6a4 013d 40f0 693e
00000140: b19d d9bd 480e d7bd 6ce5 1bbe 03d5 71be
00000150: e3d1 89bd b583 79bc 71dd 3b3d 6386 45bd
00000160: e7c7 c5bc c962 86bd cf48 70bd ee23 0bbd
00000170: d665 df3c b05b 8d3c 0175 63bd 6108 b93d
00000180: 2dea 3abd 1ae2 2f3d 6f81 5abd a435 39bd
00000190: 366c 63bd 577f 02bd 113b 47bc 61c4 1fbe
000001a0: b59f c2bd 6e1c 963d 2f73 f53d bce2 3cbd
000001b0: 1f8f 383d 3338 9cbc 6ea7 bc3c e3cd 2abe
000001c0: 529e a63d ca35 153c 1276 b1b9 3ac8 1ebe
000001d0: f48e 0c3d 8e31 ac3c ad62 463c f29a 2781
000001e0: 598c e0ba fca2 28bd 9a51 c3bd 25d0 9f3d
000001f0: 79bf e03d 1866 d6bc bd18 5fbd d504 9cbd
00000200: cd9b b43c 62cc a33d d6a2 303d 1ac1 2dbd
00000210: 5003 723d 581c afbd 86b9 babc c6b9 adbc
00000220: de39 36bc dd2f ba3c e975 463b bb46 88bd
00000230: 93c6 c3bd 4555 3f3d 2198 da3d 9bc2 c9bc
00000240: 7dc9 a0bc abe1 b33c 281d d63d cda6 52bd
00000250: d15c aa3b 7673 8fbd c9b9 9e3c 3e80 b03c
00000260: 1e88 74bc ee53 a1bc ff5a a93c 1e87 c53d
00000270: e00b e83a a155 47bc 07c6 dfbd 452c 763d
00000280: 9f39 da3d 3df2 d5bc c294 2a3d 9210 773c
00000290: df18 593d 18e5 edbd 7d65 3fbd 3295 0c3e
000002a0: 9685 3b3c f50d e03c 7c35 953d e888 333d
000002b0: 8169 923d c510 7b3d 5f7d c43c 0394 8e3d
000002c0: f7b5 8ebd 2ecd 3d3d 0bba d23d 279f d8bc
000002d0: 3b7d b1bb 9d03 db3b 251f 823b 95b5 653c
000002e0: 746e dcbd 6236 913c f1a9 b9bb 8a5e bdba
000002f0: a09b cdbb 206e d3bb 3c70 febb a251 b534
00000300: 8631 053c 24d3 d73d 2631 fabb 4dad cf39
00000310: 0f04 953b 88e1 b1ba 9cfc 1cbb 5dbc d93a
00000320: c51b 393b 8a01 18bc 4a02 83bd 91ce 313d
00000330: ca5a 10bb 5666 3d39 7723 2cba cd21 1bbb
00000340: 1bd2 27ba 8434 0281 a967 403d 30d0 c8bd
00000350: e3e1 f7bb 1f81 1a3c 1fbc c23c d43f b6ba
00000360: ba4d b9ba b859 e93b cdaa 70bb beb1 4ebc
00000370: 682e d2bd b9c0 9fbc 245c d0bb 9609 063d
00000380: 47a9 9ebb 74a7 5ebb 6d5a 08bb d606 4739
00000390: 1bcb 1fbd 0f5d ddbd 63d1 efbb f63f 6dba
000003a0: 416b b23c c574 67ba d395 e73a 56bb 383c
000003b0: 2be7 c53b 7b63 b3bb a09e b43c ad7d 8abc
000003c0: 619e 69b9 2281 8b3c ba71 853b bdd2 003b
000003d0: 5bbd 903b 062d 8ebb cdad 0e3d 250e b9bd
000003e0: d06b 06bc 468c 073c f0ff 1c3c 0464 6bba
000003f0: 1214 893a 49b5 5d3c 2928 feba 5b38 98bb
0.05951232 0.020088267 -0.010287903 -0.011149207 -0.09254838 0.012133281 0.0720968 0.12720731
0.05422967 0.056974873 0.053092327 -0.05236477 0.02598003 -0.04701166 0.045775395 -0.04455468
-0.0013723712 -0.098418415 0.009862173 -0.110402524 -0.071932055 0.066424936 0.032628767 0.016456887
-0.03651975 0.114570044 0.0059741964 0.0135437865 -0.0003148019 6.3038544e-38 -0.0046264874 -0.06535073
0.016620371 -0.01663785 -0.01565208 -0.07141556 0.02200821 0.0071876543 -0.04905924 -0.1599242
0.03204903 0.10954685 0.109472804 -0.15111825 0.019874552 0.0051426888 0.023594 -0.11019036
0.01375985 0.055014677 0.071455985 -0.033811968 -0.0014034159 -0.061629064 -0.1497822 -0.02791573
-0.00086363417 -0.13289118 0.01760668 0.08494044 -0.26337513 0.13719046 -0.16405593 -0.16485696
-0.16233887 -0.10404087 0.026458833 0.036380265 0.045976374 -0.05631629 0.001424075 -0.06569677
-0.09989264 -0.11650542 -0.06854016 -0.15319589 0.0926241 0.08004477 0.03165146 0.22845554
-0.106257804 -0.10500771 -0.15224236 -0.23616414 -0.06729486 -0.015229155 0.04586548 -0.048223864
-0.024143172 -0.065618105 -0.058663186 -0.033969812 0.027270239 0.017255634 -0.055531505 0.09034801
-0.045633484 0.042940237 -0.053346094 -0.04521717 -0.05552312 -0.031859722 -0.012160079 -0.15602256
-0.09503118 0.07329641 0.1198486 -0.04611467 0.045058366 -0.019069767 0.023029055 -0.16680102
0.08135666 0.009107063 -0.0003384804 -0.15506068 0.03431602 0.021019723 0.012108487 -3.0784224e-38
-0.0017131671 -0.04117106 -0.09537049 0.07803372 0.109740205 -0.026171729 -0.05446695 -0.07618109
0.022046948 0.07997967 0.043124042 -0.042420484 0.05908519 -0.08550328 -0.022793543 -0.021206748
-0.011122195 0.022727901 0.0030282682 -0.06654116 -0.095593594 0.04671218 0.106735475 -0.024628928
-0.019627327 0.021958193 0.1045478 -0.051428605 0.005199053 -0.07004444 0.019375699 0.021545526
-0.014925031 -0.019693341 0.020673273 0.09644912 0.0017703734 -0.012166412 -0.109264426 0.060100812
0.106555216 -0.026116485 0.041645773 0.015079634 0.053002235 -0.11615962 -0.046727646 0.13728788
0.011445424 0.027350405 0.07285592 0.043831736 0.071490295 0.06129529 0.023985563 0.06961825
-0.06968301 0.046338253 0.10289391 -0.026443077 -0.00541654 0.0066837803 0.003970998 0.014020343
-0.10763255 0.017726127 -0.0056660105 -0.001444773 -0.0062746555 -0.006452337 -0.007764844 3.3773273e-07
0.008129483 0.10538319 -0.0076352535 0.00039611236 0.004547603 -0.0013571242 -0.0023954278 0.0016611923
0.0028245312 -0.009277711 -0.06396921 0.043409888 -0.002202677 0.00018062568 -0.0006566564 -0.002367127
-0.00064018526 -2.3914907e-38 0.046973858 -0.098053336 -0.0075647696 0.009430199 0.023771344 -0.001390452
-0.0014137544 0.007121291 -0.00367229 -0.012615619 -0.102627575 -0.019501077 -0.0063586403 0.032723986
-0.004841957 -0.0033974322 -0.002080585 0.00018980665 -0.039012056 -0.10808765 -0.007318662 -0.00090503634
0.021779658 -0.00088293507 0.0017668552 0.011275133 0.0060395203 -0.0054745055 0.022048295 -0.01690563
-0.00022279612 0.017029349 0.004072395 0.001965686 0.004417104 -0.0043388633 0.034833718 -0.09035901
-0.008204415 0.00827319 0.009582505 -0.0008979442 0.0010458252 0.013531991 -0.0019390631 -0.00464539

lstm.weight_hh_l0 f4 [128, 32]
00000000: 21ee 363d 68c7 3a3d d2e5 27b1 a102 c93c
00000010: 4152 ce3a 8b48 4c3d d3cf c0b5 596f 1fbb
00000020: 49c0 2c3d 3f99 7a3c 6eb6 3abd c2ff ad3c
00000030: bc85 6a39 a4d9 0a3c be09 433c 54f3 aa3c
00000040: 263d bebc b0c6 5d3c 5ff7 f9ba 94e9 c8ba
00000050: d27e fbb7 ebbe ec32 1b54 5fbd e12e 1f32
00000060: 12d8 113a 8ba7 b63c c6fc e23c ec33 a9bc
00000070: 3f47 ee3c de5f 183d b906 7a3c a004 193d
00000080: dd6d 91bd ffc1 08be f60f 3131 822c 113c
00000090: d5d3 24be 67e2 353d 5214 87b6 333e bc3c
000000a0: 03f5 1c3d f918 98bd a90b fb3d 0afe a33b
000000b0: 31f2 813d 3686 e6bc 84d1 e03d 9a7a 583b
000000c0: fa7f a9bd e369 88bc cfaa 283b a584 133e
000000d0: 35a7 c3b9 942c 42b3 915e ad3d 0582 c8b1
000000e0: 627f c13c 9c17 92bd a86b 18bc d828 c4bd
000000f0: 1a41 10be ef1c 3dbd 4581 203d 87b5 32bd
00000100: 02a8 213b b330 1036 0513 3237 3602 0dbb
00000110: 1902 f8b9 5ad2 f736 643e b5b0 6a9d dd2e
00000120: f954 b5b9 6274 8f3b 5bf0 5f3b 85c5 c839
00000130: d9e6 1eb6 3699 dfba a7ba 09b9 9926 093b
00000140: e39a 123b 5a87 e4bb fdde f234 ffb1 0d3b
00000150: 2a9f 1c2e 618f caad 0cbf 1638 1cfa 9faa
00000160: e6ab 5fbb 9204 8a3b 4200 79bb 6e1c c038
00000170: 2776 c0b7 d994 963b edb6 7334 df03 a03a
00000180: b51f e6bd 1782 20bd 9f35 b8b8 209c 113e
00000190: a395 2e3d 7aae 60be 8533 0735 3581 7dbd
000001a0: 81cd 1cbc 5e36 2cbe cf2b 2c3e a4e8 013e
000001b0: 1320 b23c 728e 0fbe b270 aebd 0c2f b7bd
000001c0: e876 d23d f4f5 fcbd b839 4cba ed0b 883d
000001d0: cd74 103a 14ce 6a34 eca1 a33c 8593 ce31
000001e0: 131f 863c 5a9f 9abd eb1e a1bc 432f 64bd
000001f0: 46c2 ae39 42f9 86bd 0b0e 153d 2e5a 343d
00000200: aba9 593c cd49 b43c 8817 8b2e c546 013c
00000210: 715c d5bd b526 38ba 0912 af35 fe98 7cbb
00000220: 2b41 3e3c 6186 9cbd f066 bf3c c230 773d
00000230: f4f7 e33b 6615 0f3c 705b b6bc 1792 f1bc
00000240: c2e6 dbbd e437 05ba 2e6d 7cb9 22cf a73c
00000250: ffb2 8eb9 e549 4835 a55d e73c 8930 93ae
00000260: b9ae 50bc f488 1439 2de0 35bc 26dd 013d
00000270: 6b1f e13c 3eb5 40bd c479 803a 2226 a93c
00000280: 7871 1bbd e724 95bd 5389 7833 d673 72bd
00000290: 99e7 5abd f845 42bd eb6d dcb5 8ce4 19bd
000002a0: 4061 733c a5cc f43d 7296 803d 1030 80ba
000002b0: 98cb 3abd 288f 823c c1c0 943d b9df 58bd
000002c0: 4446 90be c259 f43b c0e9 f438 6b05 f13d
000002d0: 8ce2 8239 02dd 26b3 7c0a 163e 2279 4230
000002e0: 0cdd 0ebe 8d0a 8e3d 6344 07be 9876 bb3c
000002f0: fc8e 74be 9c17 183e bcff 1d3d fa8a 16be
00000300: 545c bf33 4087 9b36 bc07 aeaa d902 1db6
00000310: 4a76 bf35 2370 c6b5 c03b bd2d d5b0 66b3
00000320: aef0 aa35 17c5 60b6 81d6 e333 555f 0f33
00000330: acb2 ccb4 74ae 87b3 a30b d433 c60f 8736
00000340: 6440 5e36 8225 4736 9201 81b4 d5b4 1b35
00000350: d51f e631 0791 35ad 861a 26b6 fced dd29
00000360: 5f99 84b6 c58d 0534 faf9 3e36 3395 a434
00000370: 2ea0 9eb5 03d1 9535 0bd7 3433 693f 8c34
00000380: ab36 97bc cb5b ee3b 7844 0eac 9059 f2ba
00000390: 7b16 bebc eb63 21bc 920b 5034 be42 a7bb
000003a0: 2d26 26bc 7ca5 b3bc 0682 643c f573 a8ba
000003b0: 4675 01bb a783 673a 9dec 083a 62eb 8abc
000003c0: 3eb5 4b3c 5c21 ad3c 07b8 feb8 9d68 91bb
000003d0: f2c8 9436 bcfb 9f32 e6da ba3b 58eb e4ae
000003e0: d6e5 51bc 6dde bf3b 7fa8 35bc 515c c73b
000003f0: f084 9abc e9bb 673b d568 84b8 2ee4 8c3b
0.04466069 0.045600325 -2.4432336e-09 0.024537386 0.0015741066 0.04987387 -1.43656e-06 -0.0024327843
0.042175565 0.015295326 -0.045584135 0.021240119 0.00022365799 0.008474741 0.011904178 0.020867981
-0.023222517 0.01353614 -0.0019070915 -0.0015328401 -2.9980587e-05 2.7560835e-08 -0.05452357 9.265677e-09
0.0005563508 0.022296688 0.027708422 -0.020654641 0.029086707 0.0372008 0.015260392 0.037357926
-0.07101033 -0.13355254 2.5765963e-09 0.008860709 -0.16096433 0.044405367 -4.025679e-06 0.022978878
0.0383196 -0.07426638 0.122580834 0.005004649 0.063450225 -0.028140169 0.10977462 0.003303206
-0.08276363 -0.016652053 0.0025736575 0.14406069 -0.00037317877 -4.520969e-08 0.08465303 -5.8355476e-09
0.023620311 -0.071334094 -0.009303011 -0.09578103 -0.14087334 -0.04617017 0.03918578 -0.04363015
0.002466679 2.1486019e-06 1.0614055e-05 -0.002151621 -0.0004730381 7.385662e-06 -1.3187216e-09 1.0077879e-10
-0.0003458632 0.0043778876 0.0034170363 0.00038294136 -2.3678206e-06 -0.001705921 -0.00013134872 0.0020927547
0.0022370152 -0.006974143 4.5238258e-07 0.0021620987 3.561166e-11 -2.3028414e-11 3.5940713e-05 -2.8417622e-13
-0.003412956 0.0042119706 -0.0037994538 9.160569e-05 -2.2943203e-05 0.0045953807 2.2697687e-07 0.0012208185
-0.112365164 -0.039186563 -8.7837914e-05 0.14219713 0.042623173 -0.21941558 5.036639e-07 -0.0618908
-0.00957048 -0.16817614 0.16813587 0.12686402 0.02174381 -0.14019182 -0.08517589 -0.0894452
0.10276586 -0.12351599 -0.0007790583 0.066429 0.0005510569 2.1867919e-07 0.019974671 6.01216e-09
0.01637224 -0.07549925 -0.019668063 -0.055709135 0.0003333261 -0.06590511 0.036390346 0.044031315
0.013285081 0.022007847 6.325168e-11 0.007890408 -0.104180224 -0.0007024811 1.3043765e-06 -0.003854334
0.011612217 -0.07642818 0.023364514 0.060349233 0.0069570486 0.008733129 -0.022260398 -0.029488606
-0.10737373 -0.0005081876 -0.00024073265 0.02048451 -0.00027217713 7.4613337e-07 0.028242895 -6.6934076e-11
-0.01273697 0.00014165399 -0.011100811 0.031705044 0.027480802 -0.047047846 0.0009801914 0.020648066
-0.03795001 -0.07282429 5.7866895e-08 -0.0591925 -0.053443525 -0.04743001 -1.6423268e-06 -0.037571475
0.014854729 0.11953095 0.06278695 -0.0009779949 -0.04560432 0.015937403 0.072633274 -0.052947734
-0.28178608 0.007456989 0.00011678366 0.117686115 0.00024964323 -3.8850892e-08 0.14652437 7.074893e-10
-0.1395151 0.06935606 -0.13209681 0.022883698 -0.23882669 0.14852756 0.038573965 -0.14701453
8.910925e-08 4.635105e-06 -3.0913976e-13 -2.339648e-06 1.4265036e-06 -1.4784786e-06 2.1513347e-11 -5.3711876e-08
1.2736034e-06 -3.3493322e-06 1.0609529e-07 3.3381486e-08 -3.8127962e-07 -6.31816e-08 9.874136e-08 4.02515e-06
3.3118058e-06 2.9675143e-06 -2.4029265e-07 5.8005145e-07 6.6975e-09 -1.0320861e-11 -2.4751366e-06 9.855655e-14
-3.9517613e-06 1.2438166e-07 2.8457712e-06 3.0655937e-07 -1.1818536e-06 1.1162196e-06 4.2105096e-08 2.612317e-07
-0.018458685 0.007274126 -2.0217421e-12 -0.0018489826 -0.023204079 -0.009850482 1.9375719e-07 -0.005104392
-0.010140938 -0.021929495 0.013947016 -0.0012851941 -0.0019753738 0.00088315684 0.00052232464 -0.016957942
0.012433348 0.021134071 -0.000121459416 -0.0044375197 4.434137e-06 1.8624512e-08 0.0057023643 -1.0410045e-10
-0.012811145 0.0058553726 -0.011087536 0.006084003 -0.018862218 0.0035359806 -6.313777e-05 0.004299662

lstm.bias_ih_l0 f4 [128]
00000000: 75f4 81bc d977 303c ea7a 213b c737 1b3d
00000010: 9c93 34bc 5724 a63d 6314 6836 86ce 0b3d
00000020: a460 e83d 85a0 e43d 02f8 8b3a c9d3 ff3d
00000030: 1901 0ebc 076f e93d 8c3f 3cbd 64ba f53d
00000040: 607c 0bbe 0850 bc3d 9ea3 b13a 83eb aebd
00000050: f0d5 813c 49b6 65b9 945b 56bd ef07 00bc
00000060: a252 ba3b 42b4 b23d 8d33 ccbd 14a7 83bb
00000070: 8e03 2439 daaa 0f3e 109c 443d e94a 4e3d
00000080: 28e8 a7bb f7ff b53d 1b09 0935 a848 033c
00000090: 4477 0f3c c8d0 39bd 0554 e035 23f8 3fba
000000a0: 43c9 2c3e a15f 02bd 41e4 dcbd a80b 19be
000000b0: 89a5 46bd 4c9d 6dbc cbfa c73c 6130 cc3d
000000c0: dd76 0c3d ea9f ba3c 422d ba3b 0789 093b
000000d0: b1a5 083b f8be 1fba 79c3 b43d 61c6 0335
000000e0: ff5c f83a 1619 ae3b 67d4 b8bd 9fd5 82ba
000000f0: 8fea b0b8 8e70 d0bd 83ba a93d f67b 863c
00000100: 57f5 74ba faac 8bbd 8a21 ba3b 5086 a2bb
00000110: 384f 103a fa84 3a3d 42ee 14b9 43fe de3b
00000120: fafa db3c 3ab5 ca3d e054 85bc 34f6 b2bc
00000130: 7e1d e63c 49ab 9a3d 1bc9 72bb 06e9 6b3e
00000140: 1a6e 873d 7ad7 8abc ea49 76b9 e068 b9bd
00000150: 92be c7ba 77e1 9338 bb8d 293d d15c 0e36
00000160: 8319 a7bc 1cef b13d dba1 4f3d a883 493b
00000170: 9fbc 8fb9 5592 5a3c c221 81bb a18e d33d
00000180: 1a59 913d 8935 13be c7c7 a3b9 ca77 0e3b
00000190: 04f7 debd fdac 983d 9699 ea36 0964 c23b
000001a0: 1907 403d a88a a43c 40ff 6bbe 1a51 a03d
000001b0: 5883 163d e54f 80ba 5930 27be be87 52bd
000001c0: 41aa 043e 8337 c7bd 8071 373c 1b78 f4bd
000001d0: f123 da3b 587c d5b8 4bfd c7bd e3e6 e1ba
000001e0: 1ed6 93bd c640 43be bf77 ce3b 78ff f93d
000001f0: 6e31 80bc dec6 e7bd ca9b 033e c889 adbc
-0.015863637 0.010770761 0.0024639913 0.03789499 -0.011021521 0.081124 3.458256e-06 0.034132503
0.11346558 0.11163429 0.001067877 0.12491567 -0.008667254 0.1139813 -0.04595904 0.11998442
-0.13621664 0.09194952 0.001355279 -0.08541014 0.015849084 -0.00021907048 -0.05233343 -0.0078143915
0.00568612 0.08725788 -0.0997077 -0.00401772 0.00015641583 0.14030018 0.048000395 0.05036441
-0.0051241107 0.08886712 5.104973e-07 0.008012928 0.0087564625 -0.045365125 1.6713753e-06 -0.0007323047
0.1687365 -0.03182948 -0.107857235 -0.14945853 -0.04849771 -0.0145028345 0.02441158 0.09970165
0.034293044 0.022781331 0.0056816647 0.0020986216 0.0020850713 -0.0006093825 0.08826346 4.908998e-07
0.0018948613 0.005313049 -0.090248875 -0.0009981877 -8.436024e-05 -0.10177718 0.082875274 0.016416531
-0.000934442 -0.06820102 0.0056802677 -0.004959859 0.00055049686 0.045536973 -0.00014203138 0.0068052127
0.026853073 0.098978475 -0.016275823 -0.021845914 0.028090235 0.07552201 -0.0037046138 0.2303811
0.06612797 -0.01694845 -0.00023487923 -0.090532064 -0.001523929 7.051502e-05 0.04139493 2.1213675e-06
-0.020397907 0.086881846 0.050691467 0.003074864 -0.0002741562 0.013340552 -0.003940792 0.10329939
0.07097073 -0.14375891 -0.00031238628 0.002173888 -0.10886958 0.0745487 6.991623e-06 0.0059323353
0.04688177 0.020085648 -0.23046589 0.07827969 0.036746353 -0.0009789435 -0.16327037 -0.051398985
0.12955572 -0.09727385 0.011196494 -0.11936971 0.0066571166 -0.00010179792 -0.09765109 -0.0017234947
-0.07218574 -0.19067678 0.006300896 0.1220693 -0.01564857 -0.11317228 0.12852398 -0.021183863

lstm.bias_hh_l0 f4 [128]
00000000: 5e37 96bc 49bc 083c d752 8abb adb0 9dbd
00000010: b58d b93c ba18 2fbd a316 6836 63ca 0b3d
00000020: e64b f5bd f784 113e f6f0 b039 08a4 f93d
00000030: 44e5 1dbc b42c b2bd 681b 4cbd fc66 41bd
00000040: 51ad d9bd da8a 503d d5fb 303a 6e54 023e
00000050: e5f8 813c a5a6 63b9 8c14 56bd a731 00bc
00000060: 9d89 b73b 836b 023d b95d 62bd 0ae3 eeba
00000070: efe1 2339 81e9 953d 0635 a93d dc28 523e
00000080: 7157 31bd fd96 02bc 1199 0c35 17f0 b83d
00000090: 66cb 793d dccd dfbc 6600 f435 68d5 aab9
000000a0: de38 f23d b692 bf3d f202 87bd a4f2 e83d
000000b0: 185c acbd 949e 9fbd d2f8 1d3c 1698 ebbc
000000c0: 97aa 90bc 1a21 3f3d de3d bc3b 980f ac3d
000000d0: a88b 093b 58bd 1eba d902 b1bd 6d01 0735
000000e0: 5979 f63a af7d 1d3d 7f6c 353e 9514 7eba
000000f0: 6d81 a9b8 1870 6cbc b3b6 ddbd a5c5 35bb
00000100: 4b91 74ba b2de dfbd 8364 ba3b 6212 a4bb
00000110: f7d0 103a 83a3 383d fb56 0cb9 f1f5 e73b
00000120: 5e23 ac3c 9763 95bd 7acf 08bd 7b2f c43d
00000130: 6023 093d d051 7a3c fdfe 83bb f7d0 6b3e
00000140: ab68 45bd 48a4 debb b28d bfb9 e688 f2bc
00000150: b4d6 ceba 8bed 9338 1e10 153e 332f 2536
00000160: 7c45 8bbc 5e0a 013c a82c e1bd fa7c 473b
00000170: c0a3 8fb9 8a4f a03d 55dd 83bb 4543 e73d
00000180: 30d9 203d 4462 433a 0ae7 96b9 b46f 033b
00000190: 9925 1fbe 563e 633e a242 f836 a471 c23b
000001a0: c1ef 173d 952e 60bd 7789 47bc 0b29 9d3c
000001b0: 9ee5 6bbd e548 ebbc 7ab3 39be b396 50bd
000001c0: aa90 8f3b dcc1 ef3d 4279 373c de58 1e3d
000001d0: ef06 ee3b 5265 d5b8 c3b6 70bd 1727 e6ba
000001e0: a1b7 d03d 2ff7 26be c1e0 b43d 1e3f 533e
000001f0: d30e 69bc ba76 90bd e0ea b5bd b4fc 4d3e
-0.018336948 0.008345672 -0.004221301 -0.07699714 0.022650579 -0.04274819 3.458387e-06 0.034128558
-0.11977367 0.14210878 0.00033748866 0.121894896 -0.009637181 -0.08699933 -0.049830824 -0.047217354
-0.106287606 0.05091367 0.0006751393 0.1272752 0.015865752 -0.00021710487 -0.05226569 -0.007824338
0.0056011216 0.031840812 -0.055265162 -0.0018225622 0.00015629058 0.07319928 0.082620665 0.20523399
-0.04329628 -0.007970569 5.2376805e-07 0.090301685 0.06098499 -0.027319841 1.8179533e-06 -0.00032583927
0.11827253 0.09354155 -0.06592359 0.11374405 -0.08416003 -0.07793918 0.009641843 -0.028759044
-0.017659469 0.046662427 0.00574468 0.08401412 0.0020987783 -0.0006055436 -0.08643121 5.0293494e-07
0.0018804475 0.03844994 0.17717169 -0.0009692398 -8.0826554e-05 -0.014431022 -0.10825863 -0.0027736214
-0.00093295117 -0.10931148 0.0056882515 -0.005007074 0.0005524302 0.045077812 -0.00013383843 0.007078879
0.021012958 -0.07294386 -0.03340099 0.09579369 0.033481 0.015278295 -0.0040281997 0.23028933
-0.048195522 -0.006794486 -0.0003653593 -0.029606294 -0.0015780539 7.053752e-05 0.1455693 2.461439e-06
-0.017000906 0.007876007 -0.10994846 0.0030439482 -0.0002739709 0.07827671 -0.0040241876 0.112921275
0.039269626 0.00074533024 -0.00028782367 0.0020055594 -0.15541686 0.22191748 7.398733e-06 0.005933957
0.03709388 -0.054731924 -0.01217877 0.01918461 -0.057592027 -0.028721282 -0.18134871 -0.050924968
0.004381259 0.117068976 0.011198344 0.03865897 0.00726401 -0.00010175504 -0.058768045 -0.0017559257
0.101912744 -0.1630523 0.08831931 0.20629546 -0.014224726 -0.07053895 -0.088826895 0.2011593

lstm.weight_ih_l1 f4 [128, 32]
00000000: 6b3d 1dbd 1e04 dfbd 525d e3bb aaf1 073d
00000010: d32f 153d 8dda 06be 38c9 0039 e6cb 073d
00000020: a745 813d 641e c03d 9e6b 90bd 641b 263e
00000030: d2d0 30bd a144 55be cf6e 47be aa85 35bd
00000040: 1b59 203e 2640 8fbd d7b9 cfbc 6828 753d
00000050: 7523 003c d092 93bb 2029 e23c 8ce9 e6bc
00000060: 6136 fc3d e955 d5bd 7ca7 2d3e d549 03bd
00000070: f11d 06be 4ea2 cb3c 4103 073e 08c6 f4bc
00000080: 128e 4c3e 6755 b03c cf54 3239 2c25 da3d
00000090: 09b3 fcbc f327 df3d a6c0 3439 d586 953d
000000a0: 1a35 ed3d 5045 2fbc 4efc 443e 5a75 3f3d
000000b0: b7d3 37be b5b3 bf3e 3fee f7bd 096f 853e
000000c0: 7a84 b03d 5c11 f1bb 60b8 60bb 7622 a43b
000000d0: 9621 4fbc 2180 7b39 905a a03d d4c2 6f3a
000000e0: bd60 cabd 8123 af3d fa0c ab3d d7e9 063d
000000f0: 0445 c6bd 2cbd ec3d e462 60bd 7089 c13c
00000100: 4a24 883e d211 983c 4b0b 9a3c cfc5 103e
00000110: 5d3b 3b3e 1acb 3e3e 8a07 d238 6eff 6d3d
00000120: 0f40 483e d772 553e 853f 1bbe 6a41 16be
00000130: bb73 1cbe 7460 403e 8b7f 88bd bf89 153e
00000140: 93a2 44be 3da4 9e3c ae22 b23a 29a9 48be
00000150: 4364 4cbc 5bd3 183a a6a9 b2bd ef78 bebb
00000160: f607 41bd e2f3 e43d 7bc2 c4bd 820b 7cbd
00000170: e523 ce3d 65f8 0b3e b67f fabc e97e 28bd
00000180: e659 97bc 51d1 1bbe 9b77 04bb 46de 6c3e
00000190: c7f5 3c3e 9c14 5a3e dc19 8739 3a32 273d
000001a0: b13d 5a3d 5705 2c3e 5f82 f7bd 3f99 353d
000001b0: 7dfe 9cbd cd80 abbc 029c 4cbe 03ff 61bd
000001c0: bf93 aebd 63ed cc3d 43fb 91bc f4e6 c7bd
000001d0: 7c18 fd3b ed66 1cb9 8ed9 503e 9ddd 47bc
000001e0: a386 013e 0101 3cbd 1ece c2bd 00c5 7e3c
000001f0: d292 153e af2a d6bd e0f1 793d a884 123e
00000200: a184 32be e5ea e3bd efda 63bc 4a4d 7cbe
00000210: 43f6 4bbd 49ae d6bd c36f 6f39 6e74 92bd
00000220: 194d a9bd c9f8 1ebd 6524 333e 28a1 c83d
00000230: 1469 223e 5e00 963d a1cc 57bd 97b3 cabd
00000240: a165 8bbd e470 2ebb fa31 463b ff06 4dbe
00000250: 77cb 3fbb f245 55bb 6acc 5abd 33a8 51bc
00000260: 2e03 8c3c 6e03 3fbc ab90 9c3d 7a7b c43d
00000270: 71f3 1abf aad2 d93d 9afc 04bd e188 16bd
00000280: afd0 a1bd a567 c13d 9027 31bc 038b b8bd
00000290: 0765 c4bd eae8 88bd 457c 90b7 e5e7 c4bd
000002a0: 6ce8 d23d 8f4a 413e 5cf2 a73d e33b 6a3e
000002b0: 1589 b4bd 9de8 543b a3d7 9a3d 3c77 043e
000002c0: c4a0 f03c c33f 3dbe 80c1 6c3b f225 f23d
000002d0: a10f 113c 31ce 04bb 28e6 d9bc ff00 f2bb
000002e0: 4b01 9fbd a124 803d 9440 433e 0af1 0abe
000002f0: 5bda 863e 0c0e 13be c1ae af3c 55ce 29bc
00000300: 4e44 533e 3c00 b13d 8c3a c83c 02e3 95bb
00000310: 45e6 a1bd 5844 aa3e a65f a738 3333 9abd
00000320: 06a6 0cbe cd49 ad3d 9342 6bbd 40df c5bd
00000330: 9194 d83d 72be 0bbc 428c 5cbd cc3b e6bd
00000340: 8b18 bf3d b928 f13d c3cb a4bb 8719 46be
00000350: 944a e23a 1ee6 1eba 5bbb 6ebe 8205 aebb
00000360: f4a6 43bc 1602 22be faab 283e 8f61 28be
00000370: 11f8 1f3e 14d1 663c b4c6 60bd b930 4abd
00000380: 59db 9bbd 4ee5 ba3c 9861 01bc 3f7e 65be
00000390: 2925 2abd 0591 a3bb 344f 8837 7a69 c2bd
000003a0: fc6e f2bd bdb9 3f3e 0093 d5bb f7b1 323e
000003b0: 64f4 d3bd 961c febd c617 c2bd 8dc6 043d
000003c0: 7c9b 2abe 0d54 973d d517 0cbc 1d0c 16be
000003d0: cb39 8d3c 48ff a2bb 2201 8e3d f9fc 77bc
000003e0: 956e 213d 9957 5db9 1374 333e 0a83 f5bd
000003f0: 0539 723e 6a5d 953c 1335 c63d f3b7 6b3d
-0.03838865 -0.10889457 -0.006938615 0.033189453 0.03642256 -0.13169308 0.00012281991 0.033153437
0.06312113 0.093807966 -0.07051776 0.16221386 -0.043167897 -0.20826961 -0.19475864 -0.044316925
0.15658991 -0.06994657 -0.02535717 0.059852988 0.007820954 -0.0045035854 0.0276075 -0.028187536
0.123150595 -0.10416777 0.16958421 -0.032052834 -0.13097359 0.024857666 0.13184835 -0.029879585
0.1997607 0.021525098 0.00017006996 0.10651621 -0.03084709 0.108962916 0.00017237905 0.07301108
0.11582394 -0.010697678 0.19236872 0.046742775 -0.17951857 0.37441793 -0.12105989 0.26061276
0.08619018 -0.0073568057 -0.0034289584 0.005008991 -0.012642285 0.00023984957 0.078297734 0.0009146158
-0.098817326 0.08551694 0.083520845 0.03293785 -0.096811324 0.11559519 -0.05478181 0.023625106
0.26590186 0.018563185 0.018804213 0.14137958 0.18284364 0.18632165 0.000100149846 0.058104925
0.19555686 0.20844589 -0.1516095 -0.14673391 -0.15278523 0.18786794 -0.06664952 0.14603327
-0.19202642 0.019365424 0.0013590658 -0.1959578 -0.012475076 0.0005829834 -0.08723764 -0.0058127563
-0.047126733 0.111793295 -0.09607407 -0.061534412 0.1006544 0.13668974 -0.030578475 -0.041136656
-0.018475484 -0.15216567 -0.0020212892 0.23131666 0.18453132 0.21296924 0.00025768473 0.040819384
0.05328149 0.16798912 -0.12085413 0.0443356 -0.07665727 -0.02093544 -0.19981387 -0.05517484
-0.08524274 0.100062154 -0.017820006 -0.09760848 0.007723866 -0.00014915662 0.2039549 -0.012198833
0.12649016 -0.045899395 -0.0951197 0.015549898 0.14606789 -0.1045736 0.061021686 0.14308417
-0.17433406 -0.11128787 -0.013907178 -0.24638858 -0.0497954 -0.10482461 0.0002283445 -0.071511135
-0.08266658 -0.03881148 0.17494352 0.09796363 0.15860397 0.07324289 -0.052685384 -0.09897535
-0.068064936 -0.002661758 0.003024219 -0.200222 -0.0029265562 -0.0032542911 -0.0534176 -0.0127964495
0.01709136 -0.011658533 0.07644781 0.09593864 -0.6052771 0.10635884 -0.032467462 -0.03675163
-0.07901131 0.09443597 -0.010812655 -0.090108894 -0.09589582 -0.0668505 -1.7224005e-05 -0.09614543
0.10298237 0.18876098 0.08200523 0.22874407 -0.08815209 0.003248728 0.07560661 0.1293611
0.029373534 -0.18481354 0.0036126077 0.11823644 0.008853824 -0.0020264501 -0.026599005 -0.0073853726
-0.077639185 0.062569864 0.19067603 -0.13568512 0.26338467 -0.14360827 0.021445634 -0.010364135
0.20631525 0.08642623 0.02444198 -0.0045741806 -0.079052486 0.33255267 7.9809965e-05 -0.07529297
-0.13735208 0.08461342 -0.057436537 -0.09661722 0.10575212 -0.008529292 -0.053844698 -0.11241874
0.09330853 0.11775345 -0.005029173 -0.19345675 0.0017264658 -0.0006061512 -0.23313658 -0.005310715
-0.01194166 -0.15821108 0.16471854 -0.16443466 0.15621974 0.014087934 -0.054876998 -0.04936287
-0.076101966 0.02281442 -0.007896803 -0.2241144 -0.041539345 -0.004991653 1.6249345e-05 -0.09492774
-0.11837575 0.18723197 -0.006517768 0.174507 -0.10349348 -0.12407796 -0.09477191 0.032415915
-0.16660875 0.07389078 -0.008550604 -0.14653058 0.017239472 -0.0049742796 0.0693381 -0.015135997
0.0394121 -0.00021108835 0.17524748 -0.11987884 0.23654564 0.01823302 0.09678092 0.057548475

lstm.weight_hh_l1 f4 [128, 32]
00000000: 6dbe 3bbe ce55 773d ccc4 61bd 2d3c 7d3d
00000010: 3cf4 c43c 71b7 5c3d 45d7 c0bd dcf1 323e
00000020: 096a 263e 7a8b b23d 8ac4 2fbd e7c3 1abe
00000030: 96eb 94bd c0c3 5bbe b9bc ad3d 62fe 073d
00000040: 8551 cd3d 90ec 0dbd f61d 15be 65ef 013e
00000050: ad76 b8bc 47df 943d 67ad 77bc 9d86 ca3d
00000060: eb50 4dbe 10d5 cb3d 5615 b2bd b7e8 14be
00000070: 1d72 d83d 0f9e 67bd d257 543d fed4 c6bd
00000080: 6cd8 8fbd a24a d0bb 4a7d 043d 18bf 273e
00000090: 5c80 e2bd 30ff 8cbd d988 bdbe 3322 b03d
000000a0: bbe7 59be f3e0 2f3e ca06 e3bd 1754 00be
000000b0: 4b2a bc3d f0af 98bd 3a10 8c3e c003 423e
000000c0: 277d c43d a4a8 3c3e 5201 f6bd b026 99be
000000d0: 0889 033e 28e5 44be 4b6d 91bd f569 02bc
000000e0: 9f4d dfbd b8e6 173d ab9c 1abe a80c 143e
000000f0: e885 863d e32b b03e b2f1 a43d a29d 143c
00000100: 36f6 d43d 9efe 773e 2bc6 493d 1152 8c3e
00000110: eda6 84be e578 65bd 7a22 3bbd f2aa ee3d
00000120: bcc8 5ebe 35d2 d83d d2a3 9abd 08de 53be
00000130: 1c57 733d 171a a8bd 82b8 85be 3c7c bd3d
00000140: a026 9e3d e85a a73d 315f a0bc 1921 883d
00000150: b86a c63d bb0c 323d 02a2 98be 0d7f 1f3d
00000160: 72c1 acbd b68b 883c 502a d8bd 137c 953d
00000170: 3da2 25bd d28d 7b3e 5042 7f3d d963 7c3e
00000180: 84a0 633d 3812 e3bc 3c45 31be d562 e73d
00000190: b79b fcbd 5cdb be3d 3fa4 23be bf62 24bd
000001a0: de83 443d 5d26 523e 3a5c 53be ddc0 b5bc
000001b0: ba7c 563d 45e9 4abe 74e4 e93d 7259 893d
000001c0: 4aab 553e 4727 9c3d 4b9a afbd 67da 02be
000001d0: a143 ce3d 3cd8 2fbe b44a 78be 9698 dc3b
000001e0: 172c 173e 3062 433e da08 e0bd a0af 6b3e
000001f0: 7577 c83d 5537 38bc 5dad 1d3e ba95 dcbb
00000200: ad71 0dbe dbe2 263e 6b9d 2fbd c547 c7bd
00000210: 4c15 923b f22a a93d 60f9 243d 5bd5 27be
00000220: 905b d03d ef16 cfbd fdb1 aebc aa25 17be
00000230: 60a2 c1bc 7db6 bf3d e974 1fbe d606 33be
00000240: bcce 9cbb 9d24 3a3d ebfe acbe 7cf5 443d
00000250: bee2 bebc f585 a6bd 5d45 e53c 6e31 8abd
00000260: d309 b23c 6d9d 2dbe 6c10 eb3d 9d91 b63d
00000270: 0e73 603d 5742 02be af10 ba3d d1f5 363e
00000280: f538 2b3d 146e e6bd 4b8f ce3d 54c3 b63d
00000290: 4584 da3d 5eb5 9e3c f5e4 a13d d772 c0bd
000002a0: 6cc6 b23d 952f 463e dc4d 5bbc 81ec d93d
000002b0: ad06 65bd 7b64 80be 8111 94bd 9e0b bbbc
000002c0: 0159 983d 12cb df3c 4235 133d 9061 3fbd
000002d0: 4e51 2bbd 0810 8f3c f0bf 1abe 204c d53c
000002e0: f938 c539 682f f63c 826e 1fbd 958b 1fbe
000002f0: 3fc4 27bd ca78 00be 352d 06be d40b 2bbe
00000300: da18 fc3d fe7b 0abc 28c3 c9bc 8cb5 85bc
00000310: aaa5 04be 74c0 233d d772 df3b 5d4f 523c
00000320: 7606 36bd 6f25 fe3c 77a2 973c 0696 943c
00000330: a3ff 383c b655 2ebd ef75 40bd 2624 e9bc
00000340: e2fb 133e 3c71 76bd 46b4 8a3d 00ad 0a3e
00000350: dc0d 8f3d 0a0c cc3b 8c19 4dbe 434a 3ebe
00000360: 24d9 a73d 69be 10bd f066 813c 06d7 77bd
00000370: c3c8 c9bd 0fa9 343e 618e 113e d52c f2bc
00000380: e270 1dbd c028 233e 3a6e af3c 12fb 31bd
00000390: e341 5f3c f869 e93d 861e 53be 8642 29be
000003a0: ae21 f5bc a86e 13bd 0f69 56be c8e9 26be
000003b0: fb53 bfbd 6a0d 72be c398 df3d 660a 2ebd
000003c0: edd6 543d 8242 543c 0e98 1abe 1ea9 7cbd
000003d0: 5578 3d3d add9 1dbe 81d9 73be 1734 2c3d
000003e0: feeb b53c b922 65bd c4e1 303d d019 6f3e
000003f0: b78f 8e3e dec8 87bd 4324 93bd b691 98bd
-0.1833436 0.060384564 -0.05511932 0.061824966 0.024042241 0.05388588 -0.094160594 0.17475075
0.16251387 0.08718009 -0.042912044 -0.15113793 -0.07271497 -0.21461391 0.084832616 0.033201583
0.10025314 -0.03464943 -0.1456221 0.12688978 -0.022517527 0.07269149 -0.015117026 0.09888957
-0.20050399 0.09952748 -0.08695476 -0.14541899 0.105686404 -0.05654722 0.051841564 -0.09708594
-0.07023701 -0.006356553 0.032346047 0.1638149 -0.11059639 -0.06884611 -0.3701847 0.08600273
-0.21279804 0.17175655 -0.11085279 -0.12532078 0.09187754 -0.074554324 0.2735613 0.18946743
0.095941834 0.18423706 -0.120119706 -0.2991233 0.12845242 -0.19228041 -0.07100924 -0.007959832
-0.10903477 0.037085265 -0.15098827 0.14457953 0.06568509 0.34408483 0.08053912 0.009070786
0.103985235 0.24218222 0.049261253 0.27406362 -0.25908604 -0.056023497 -0.045687176 0.11653699
-0.21756262 0.10586969 -0.075507775 -0.20690167 0.059409246 -0.08208101 -0.2611733 0.092522115
0.07722211 0.08171636 -0.01957664 0.06646938 0.09688324 0.043469172 -0.29811102 0.038939524
-0.08435334 0.016668182 -0.105549455 0.07299056 -0.040437926 0.24565819 0.0623191 0.24647464
0.055573 -0.027718648 -0.17311567 0.112981476 -0.12334388 0.09319183 -0.15980624 -0.040133234
0.04797732 0.20522447 -0.2064065 -0.022186691 0.052365042 -0.19815548 0.11420527 0.067065135
0.20866123 0.07624679 -0.08574351 -0.12778626 0.10071493 -0.1717233 -0.24247247 0.006732057
0.14762913 0.19080424 -0.10939188 0.23016214 0.097884096 -0.011243661 0.15398164 -0.006731716
-0.13812895 0.16297476 -0.042874735 -0.09730486 0.004458105 0.08260144 0.040276885 -0.16389982
0.10173714 -0.10111796 -0.021325106 -0.14760461 -0.023636997 0.09360979 -0.15571941 -0.17483076
-0.004785387 0.045445073 -0.33788237 0.048085675 -0.023301478 -0.08131019 0.027987177 -0.06747709
0.0217332 -0.16954584 0.114777416 0.08914492 0.054797225 -0.12720619 0.090852134 0.17867209
0.041802365 -0.112514645 0.10085925 0.08923975 0.1066976 0.019373592 0.07904998 -0.09396904
0.08729252 0.19354089 -0.013385262 0.10640813 -0.05591457 -0.2507666 -0.07229901 -0.022832688
0.07438851 0.027318511 0.035939462 -0.046723902 -0.041825585 0.017463699 -0.15112281 0.026037276
0.00037617216 0.030051902 -0.038923748 -0.1558059 -0.04095864 -0.12546077 -0.13103183 -0.16703731
0.123094276 -0.008452414 -0.02462919 -0.01632192 -0.12953821 0.03997846 0.00681911 0.0128363045
-0.044439755 0.03102371 0.018510086 0.018137943 0.011291417 -0.04256221 -0.04698747 -0.02845962
0.14451554 -0.060166582 0.06772666 0.13542557 0.06985065 0.006227021 -0.20029277 -0.18583016
0.08195713 -0.03533784 0.015796155 -0.060507797 -0.098527454 0.17642616 0.1421447 -0.029562393
-0.03843773 0.15933514 0.021414865 -0.04345233 0.013626548 0.11397165 -0.20617113 -0.16529283
-0.029923286 -0.035994202 -0.20938514 -0.16300118 -0.0934219 -0.2363793 0.10917809 -0.042490385
0.05196278 0.01295531 -0.15097067 -0.06168472 0.046257336 -0.15415068 -0.2381344 0.042041864
0.022207256 -0.055941317 0.043184057 0.2334969 0.2784402 -0.06630109 -0.07184651 -0.07449667

lstm.bias_ih_l1 f4 [128]
00000000: f114 9d3d 422c 3cbd acfe 123d e405 ea3d
00000010: f371 943d b15f cc3b 2f12 0abe 9274 273d
00000020: 38c0 703e 64b0 8ebc d285 5f3d 6729 dd3d
00000030: b522 b1bd 1bb8 40bd 3d11 2cbe f092 833d
00000040: 136c 0d3e 6084 8bbd d1ad fcbd 5fb6 a13d
00000050: 7bdd f23d f11a b4bd 22b8 7a3d 6ab1 13be
00000060: 68f4 fb3d 31aa 3d3d ea27 143e adb6 edbd
00000070: 9538 603d 9643 a53d 63f9 b73c 8219 903d
00000080: b31a 4dbc fb19 833e 6efe 783e 803b f93d
00000090: 9635 103e ad7f 4e3e 7964 2e3b 849c 89bd
000000a0: 5f7e c03d 1273 983d f305 6bbd a6e1 b63d
000000b0: 8536 cd3d 2a45 513d 782a abba 2a04 043e
000000c0: 970b 7f3e 5ef4 c43d ee25 4dbb 31f3 b23e
000000d0: e4b7 f03d 400a 90bd 228a 95bc d5fb eb3d
000000e0: 1e80 263e 3848 9f3d 2fec 033e 270f 4a3d
000000f0: 38cf 28ba 2ff9 873e 156d c73d 8092 8d3d
00000100: 8e37 0dbe 038b bfbd c6e7 f7bd 69ae 103e
00000110: de27 7f3d a0bb 2f3e a8ca 44be 6804 e4bd
00000120: b8a3 a7bd 5c9e 64bd c087 3d3d ed4e c13d
00000130: 45f4 193e 2969 88bd 2545 723c edb6 e13d
00000140: 7316 b6bd 5990 543d a3ba cfbd be8b 243e
00000150: a5e3 163e 9fa9 403e 1ba5 0bbe 5a60 96bd
00000160: def6 99bc b3ed 13be 7278 cabd 7242 e739
00000170: dffd 323e 5d70 493d 9aab 293e b1d9 2f3d
00000180: 140c 353e 9bba 803e 46f4 2b3e b4c3 293e
00000190: 60d7 4d3e 5861 263e 0c4b abbb cbc3 3b3d
000001a0: 53db 833e 9ba4 1dbe 2fb5 04be ebff 233d
000001b0: fe29 2d3d 7455 0bbe 70da 37bd c711 2c3e
000001c0: 86f1 363e b9aa 05bd 04cf c43c 8d27 c23e
000001d0: 79d5 9a3e 5e14 9c3a 1efd 163e dc45 983d
000001e0: 9230 323d fec7 aabd 8cb3 a8bd ff3e 5f3e
000001f0: a6ab 8a3e e34d 063d 1d3b 353e 09fd 843a
0.0767001 -0.045940645 0.035887405 0.11426905 0.072482966 0.0062369932 -0.13483499 0.040882654
0.23510826 -0.017418094 0.05457098 0.107989125 -0.08649198 -0.047050577 -0.16803451 0.064245105
0.13810758 -0.06812358 -0.1233784 0.07896113 0.1185865 -0.08794201 0.06121076 -0.14423147
0.12302476 0.046304885 0.14468351 -0.11607108 0.05474146 0.080695316 0.022457784 0.07036115
-0.012518573 0.2560576 0.24315807 0.12169552 0.14082941 0.20165892 0.002661018 -0.06719306
0.093991034 0.07443823 -0.05737872 0.08929758 0.100201644 0.05109135 -0.0013058921 0.12892213
0.24906765 0.09616922 -0.0031303125 0.34951165 0.11753824 -0.07033205 -0.018254343 0.115226425
0.1625981 0.077774465 0.12883066 0.049330857 -0.00064395694 0.265573 0.097376026 0.06912708
-0.13790724 -0.09352686 -0.12104754 0.14129032 0.06229388 0.17161417 -0.19217932 -0.11133653
-0.08185524 -0.055815086 0.04627204 0.09438882 0.15034588 -0.06660683 0.014786993 0.110212184
-0.088910006 0.051895473 -0.1014302 0.16068932 0.14735277 0.18814705 -0.13637201 -0.07342596
-0.018794473 -0.14446144 -0.09886254 0.0004410926 0.17479657 0.049179424 0.16569367 0.042932216
0.17680389 0.2514237 0.16792402 0.16578561 0.2010169 0.16248071 -0.005227452 0.04584102
0.2575327 -0.15394823 -0.12959741 0.040038984 0.042276375 -0.13606817 -0.044886053 0.16803657
0.17865571 -0.032633517 0.024024494 0.379208 0.30240992 0.0011907925 0.14744994 0.074351996
0.04350335 -0.08338927 -0.08237371 0.21801375 0.27084082 0.032789122 0.17698331 0.0010146211

lstm.bias_hh_l1 f4 [128]
00000000: 7ff9 4cbe 8434 cbbc 8342 523d ea41 bf3d
00000010: 1680 f33d c066 95bd b4ba 203e ac50 373d
00000020: d25c b6bd 3f7a 04bb c119 0f3e 0ca6 ab3c
00000030: 3ede 95bd 69c0 79bd ba13 c5bd 8a07 c7bd
00000040: 5bc8 e33d a8c2 893d 3e30 57be cee0 e93d
00000050: 841b 8e3c dd13 b43d 32b4 1abe 12f0 513d
00000060: dd6b 99bd e0bb 223e e21b 09be 5849 3f3e
00000070: ed6d 1d3e 825e abbd 83f4 073e 606f 7d3d
00000080: 1f54 e4bd 1b2a 6d3e 9cd7 363e c223 493e
00000090: 9447 113e 30ae 63bd d035 423e 10c0 1c3e
000000a0: 9397 653e 58dd 02be 038a adbd 9773 13bd
000000b0: 5530 843e 5bc4 6dbc 167d b43d 5532 92bd
000000c0: 09ec b93d 68aa 363e d74d 233e 0df8 053e
000000d0: 6257 243e c98a 853d 3d1b f93d 9f2d 5bbd
000000e0: 249f 15bd f941 653e 140e 8c3e d99a 833b
000000f0: ba47 593d 2330 203e 18b9 463e 132d 043b
00000100: 0858 58bc 6e46 3d3e 0553 303d 0258 b93d
00000110: baf6 2fbe c6b2 0e3e 1c67 103e 2f04 eabd
00000120: 2161 21be 524d a83d a8d3 223d 803a 48bc
00000130: 939c a8bd b23d 283e d3e3 613d 3e3d 92bd
00000140: c74b 583d f7bd 2bbd 472e 873d 5940 1dbd
00000150: 2318 82bd 9212 b3bd 0646 cabd 6731 15be
00000160: 0ce9 ff3d e552 123e 3c2e 883d 3bc2 d5bd
00000170: b2e3 2c3e 8bca 3dbe f568 24be af21 5b3d
00000180: a472 9e3c e911 6f3d bb21 f43d 7c1e 383e
00000190: 0125 a03d 0554 aabd b987 b2bc e04b 373e
000001a0: 26ca 103e cf6f bfbd b46d cebd e9ff 3c3c
000001b0: 500b 913d ede9 10bc ea5f 6cbd d89b e4bd
000001c0: a11f cc3d f66b 343e 6ebd a2bd 076f c93e
000001d0: 42b1 043d 5253 b83d 662b ccbc 0b62 303e
000001e0: 7573 3f3e c387 143e d481 743e 6598 5c3e
000001f0: b125 f9bc f0b9 dcbd 50bc 3f3e 36a9 9b3e
-0.2001705 -0.024805315 0.05133296 0.09338744 0.11889665 -0.07294989 0.15696222 0.04475467
-0.08904423 -0.0020214466 0.13974668 0.0209532 -0.0731778 -0.060974512 -0.09622903 -0.09718235
0.11122199 0.06726581 -0.21014497 0.11419831 0.017347105 0.08792851 -0.15107802 0.05125434
-0.074912764 0.15891981 -0.13389543 0.18680322 0.15373965 -0.08367635 0.13276868 0.061873794
-0.11148857 0.23160593 0.17855686 0.19642547 0.14187461 -0.05558604 0.1896584 0.15307641
0.22421102 -0.12779748 -0.08473589 -0.035998907 0.25818124 -0.014512147 0.08812921 -0.07138506
0.09078223 0.17838442 0.15947662 0.13082905 0.16048959 0.06520612 0.121633984 -0.053510305
-0.03652872 0.22388448 0.2735449 0.004016262 0.05304692 0.15643363 0.19406545 0.0020168468
-0.013204582 0.18483898 0.043047924 0.09049989 -0.17183962 0.13935384 0.14101833 -0.11426579
-0.15759708 0.08217873 0.039752632 -0.012220979 -0.08232989 0.16429785 0.05514891 -0.07140587
0.052806642 -0.04192921 0.066006236 -0.038391445 -0.0635226 -0.087437764 -0.09876637 -0.14569627
0.12495622 0.14289434 0.066494435 -0.10437437 0.16883734 -0.18534295 -0.16055663 0.05349892
0.019341774 0.05836669 0.11920496 0.17980379 0.07819558 -0.08316807 -0.021793233 0.17900038
0.14139614 -0.09347498 -0.10079518 0.011535623 0.07082236 -0.008844835 -0.05770866 -0.11162537
0.0996697 0.17619309 -0.07946287 0.3934252 0.03239561 0.09000267 -0.024923038 0.172249
0.18696387 0.14504914 0.2387765 0.21542509 -0.03041348 -0.10777652 0.1872418 0.30402535

fc.weight f4 [5, 32]
00000000: 1669 bd3d 0a91 f23d d5e0 64bd 504e 263e
00000010: 0d8a de3d 2cd2 1fbe 4d46 64bd 02fa 543e
00000020: 7d91 ddbd e9ce bc3d ccd5 12be fe36 19be
00000030: 5493 2b3e c311 d03d 673e 513d 3856 4fbe
00000040: f247 033e dcdf 4a3e 0c80 9ebc 46c2 7e3e
00000050: 81bc 56be 0580 59be 8a77 35bd 911d 62be
00000060: 279b 0f3b c4bd 453e fd84 2dbe 0271 e6bd
00000070: 3d1d 86bd fd96 c63d 58cb 6f3d a509 4cbe
00000080: 246a 9d3d 9599 983d 7138 a73d 3f12 3e3e
00000090: 285e 9f3e 08bb 303b ea5f 60bd 94d5 e73d
000000a0: 3bb7 c3bd 0836 31bd c432 1abe 2449 2d3d
000000b0: 7b7c 0d3e 888a 143e 6270 4abd 558b 8dbd
000000c0: 7431 663e 0958 7e3e b04d f8bd b2f6 073e
000000d0: 4f67 2ebe 47d4 88be b4cc 1fbe aeee 45be
000000e0: ec81 27be a93e 4f3e e2c0 2ebe 9eb3 d9bc
000000f0: 958e 36bd ed6a e23c f46b 883d 99d8 8bbe
00000100: 85c0 3a3e a396 153e 0b1e 29bd c020 bb3c
00000110: 90c8 393e 846a 86bd e802 1fbe a9b3 6bbd
00000120: 0b6a a3bd 7830 e63d a9be f9bd f513 43be
00000130: b11d aa3c 26fc fc3d 9590 38bd b89f d5bd
00000140: 4584 363e 25b0 2e3e bfa2 5bbe c897 8bbd
00000150: 0679 34be 3de3 ecbd 31cb 4bbd 57e1 45bd
00000160: bd2e 31be 0463 653d 18bc 48be de6a aa3d
00000170: eada 633e b4da 70bb 7e9c 4e3e e33a 96be
00000180: 8a63 723e bd30 8e3e 9744 4dbe b00d 6b3e
00000190: 4210 0e3e a0a7 003d 804d 36be 4473 7c3d
000001a0: 2ff2 35be 5bc7 503e c838 dcbd e6db 79be
000001b0: 3c0c f93d 2692 343e e838 7bbe 6d6d 88bd
000001c0: 8078 c13d 1755 0a3e 1b85 163d d751 f7bd
000001d0: eda2 ab3e c5b1 adbd f200 f8bd 0647 b73c
000001e0: 6250 b33d 255d a1bb 7966 c83c c7f1 603e
000001f0: 9a67 553e 8724 4d3e f170 453e 413c 863d
00000200: 11a6 903c 7f39 c33d f218 40be af55 4e3c
00000210: 2119 e73d d29f 70be 0b12 f3bd 9d00 7e3e
00000220: 4604 60be 1c09 ba3d 3c88 2f3d 4a3c 3cbd
00000230: b144 c13c db97 973d 7c3d fcbd 867b a3be
00000240: 5969 3f3e 8a14 853e 6bde d13c b08f 773e
00000250: 2ca5 1dbe 332b 66be 17da 89bd 84b4 aa3c
00000260: 4173 8bbd dd37 2c3d ecdf 58be cc72 85bd
00000270: f188 abbb 7b64 a53d 4180 303e 6b7a 09bc
0.09248559 0.1184407 -0.05587848 0.16240811 0.10866175 -0.15607518 -0.055731107 0.20798495
-0.10818765 0.092191525 -0.1433937 -0.14962384 0.1675542 0.10159638 0.051084902 -0.20247734
0.12820414 0.19811958 -0.019348167 0.24878797 -0.20970346 -0.21240242 -0.044303454 -0.22081591
0.0021912546 0.19310671 -0.16945262 -0.11252023 -0.065485455 0.096967675 0.058543533 -0.19925554
0.0768626 0.074511684 0.08165062 0.18561648 0.31126523 0.0026966948 -0.05477897 0.11320034
-0.09556433 -0.04326442 -0.15058428 0.04230608 0.13817017 0.1450597 -0.049423583 -0.06911341
0.22479802 0.2483827 -0.12124193 0.132777 -0.17031597 -0.26724455 -0.15605432 -0.1932933
-0.16358155 0.20238747 -0.17065766 -0.026574906 -0.04456957 0.027638877 0.066612154 -0.27313688
0.18237503 0.14608245 -0.041288417 0.022842765 0.18142915 -0.06563285 -0.15528452 -0.057544384
-0.079792105 0.112397134 -0.12194569 -0.19050582 0.020766111 0.12352781 -0.04505976 -0.104308546
0.17823894 0.17059381 -0.21448801 -0.06816059 -0.17624292 -0.1156678 -0.049754325 -0.048310604
-0.17302985 0.05600263 -0.19603002 0.083211645 0.22251478 -0.003675145 0.20176885 -0.29341802
0.23670784 0.2777156 -0.20045696 0.2295444 0.1387339 0.03140986 -0.17803001 0.061633363
-0.17768167 0.20388548 -0.10753018 -0.24400291 0.12160537 0.17633876 -0.24533427 -0.06661496
0.09446812 0.13509022 0.036748033 -0.120761566 0.3352274 -0.084811725 -0.12109555 0.022372734
0.08755566 -0.004924434 0.024462925 0.2196723 0.20840302 0.20033465 0.19281365 0.06554461
0.017657312 0.09532451 -0.18759516 0.012593671 0.1128409 -0.23498467 -0.11868676 0.24804921
-0.2187663 0.09083769 0.042854533 -0.045955934 0.023592325 0.07402011 -0.12316415 -0.31930178
0.1869253 0.25992233 0.025618752 0.24175906 -0.1539504 -0.22477417 -0.067310505 0.02083803
-0.06809092 0.042045463 -0.2117917 -0.065160364 -0.0052348305 0.08075806 0.17236425 -0.008391003

fc.bias f4 [5]
00000000: 4c4c c2bc 591d 483d 28b3 e6bb e26b ecbc
00000010: 2b7c f53d
-0.023718022 0.048856113 -0.0070404 -0.028860036 0.11986574
