best_model.pt (torch, 102005 bytes, 10 tensors)

lstm.weight_ih_l0 f4 [128, 90]
0.022208266 0.0037178162 0.060572755 0.0140464995 0.022003574 -0.008378991 0.0035465881 0.020897461
-0.0005226028 0.0021634314 -0.014959149 0.0017224539 -0.10311071 0.11659124 -0.08279784 0.036997594
-0.107756354 0.09185885 -0.09680068 -0.05047254 0.061077207 0.027723212 -0.051497493 0.0017378691
-0.056604978 -0.0063040806 -0.08479807 -0.06707851 -0.08311143 -2.9045902e-38 0.019941049 0.008513635
-0.0748345 0.07457787 -0.13491194 0.088876605 -0.09144826 -0.023154778 0.030317413 0.015414186
-0.011965649 -0.02306236 -0.037013233 0.0049520903 -0.070775874 -0.057874553 -0.09987309 0.001193302
-0.029336171 0.14613387 -0.064582475 0.05563635 -0.09034272 0.09963741 -0.077198155 -0.05690449
0.024668533 0.08758489 0.11442358 -0.094591506 -0.011363908 -0.03859949 -0.09977492 -0.11402557
-0.10738628 -0.034639463 0.048086658 0.047266144 -0.08304007 0.05020049 -0.08322163 0.07223456
-0.11417395 -0.021292686 -1.35729715e-05 0.11443563 0.06995409 -0.028633453 0.0069754967 0.008259671
-0.07621723 -0.068507746 -0.08348009 -0.020188253 0.02816092 0.15623033 -0.07765094 0.038409106
-0.09195001 0.08731676 0.31635806 0.004447976 -0.27534148 -0.25564128 -0.02261324 0.089022174
0.19623584 0.14094767 0.37221837 0.09325158 0.28866425 -0.09147781 -0.09445715 -0.09359517
0.051211197 0.078884 0.20157447 -0.29516044 0.25142172 0.15922889 0.04346931 -0.05036153
-0.0063742124 -0.12264113 -0.027303746 -0.1499087 0.2227354 0.14685549 0.19342552 4.1213805e-38
0.20543219 -0.011875947 -0.04069183 -0.051260673 0.12066197 -0.24938507 0.17284235 0.26707926
-0.17815861 -0.06805451 -0.08858692 -0.09170232 0.1119551 0.061588902 0.14623566 0.4192739
0.1976664 0.15932995 0.16349438 0.1423255 -0.015891152 -0.13155286 0.1826108 -0.21595207
0.1560536 0.25313452 -0.10725632 -0.22996023 -0.07467565 -0.12584285 0.32798228 0.060157888
0.16060476 0.21095693 0.32757545 0.011708763 0.11169912 0.004883678 -0.16098006 0.049452946
0.2150435 -0.4155791 0.17686166 0.087919265 -0.120550096 -0.13606639 0.18316068 -0.050910853
0.11558401 0.004950274 0.16609274 0.3415899 0.33901396 -0.32438776 0.060771454 0.15385006
0.0869261 -0.10197231 0.17437637 -0.15743205 2.8008035e-05 1.5317704e-05 -3.8499966e-06 -1.3211868e-05
-0.027683482 -5.8379446e-05 9.296937e-06 6.957973e-06 3.0230654e-05 2.9709257e-05 3.0364183e-05 -2.363444e-06
-0.000113797025 -0.0011356306 -2.2142647e-05 -1.3341106e-05 -2.1717906e-06 -2.5598949e-05 7.2919183e-06 2.3951317e-05
1.2968602e-05 -7.2047887e-06 -0.047610752 -5.354885e-06 -2.0828244e-05 -2.2080746e-07 7.2440826e-06 7.2242783e-06
7.1016484e-06 -3.8595734e-38 -2.640843e-05 -0.0049165944 -2.365704e-05 -1.294053e-05 -2.2628412e-06 -2.5081546e-05
-1.1043919e-05 2.597158e-05 3.3379365e-05 1.1018391e-05 -0.010150445 -9.425166e-06 -1.3852835e-05 -5.0564006e-07
-1.3767544e-05 -1.3779519e-05 -1.6388027e-05 1.3745644e-06 -7.727091e-05 -0.007510874 -2.3663968e-05 -1.3346208e-05
-2.264968e-06 -2.5626989e-05 -1.4188947e-06 5.835515e-05 2.621452e-05 1.832316e-05 -0.011687481 -5.251378e-05
1.8736846e-05 -3.0724075e-06 -3.5013331e-06 -2.447658e-06 -4.5875654e-06 -4.7266138e-07 -3.7228776e-05 -0.0075485576
-2.3394678e-05 -1.3265731e-05 -2.2649715e-06 -2.575308e-05 -8.84308e-06 5.1663843e-05 3.559795e-05 2.1283871e-05
00000000: 1cee b53c 9ba6 733b 231b 783d 4a23 663c
00000010: d740 b43c 0948 09bc e06d 683b 2731 ab3c
00000020: 48ff 08ba 5bc8 0d3b 3817 75bc f6c3 e13a
00000030: b52b d3bd 63c7 ee3d ea91 a9bd ca8a 173d
00000040: 5daf dcbd 7e20 bc3d 6f3f c6bd 4bbc 4ebd
00000050: 182c 7a3d ca1b e33c 09ef 52bd 36c9 e33a
00000060: 9fda 67bd 7692 cebb 9caa adbd 7560 89bd
00000070: 5336 aabd 1424 1e81 695b a33c c67c 0b3c
00000080: d542 99bd 48bc 983d 5b26 0abe f004 b63d
00000090: 3a49 bbbd 17af bdbc 395c f83c c88b 7c3c
000000a0: 920b 44bc 46ed bcbc 309b 17bd 2545 a23b
000000b0: f1f2 90bd de0d 6dbd 438a ccbd 9268 9c3a
000000c0: 6952 f0bc 1ea4 153e d143 84bd f1e2 633d
000000d0: 9b05 b9bd b30e cc3d 111a 9ebd af14 69bd
000000e0: aa15 ca3c b55f b33d e956 ea3d 31b9 c1bd
000000f0: af2f 3abc 801a 1ebd cb56 ccbd 3d86 e9bd
00000100: 57ed dbbd 1ce2 0dbd 84f6 443d 259a 413d
00000110: ea10 aabd 079f 4d3d 1a70 aabd b7ef 933d
00000120: 08d4 e9bd 006e aebc 78b7 63b7 3a5d ea3d
00000130: 1744 8f3d b490 eabc b592 e43b 9253 073c
00000140: c717 9cbd ca4d 8cbd 9cf7 aabd d661 a5bc
00000150: bbb1 e63c d8fa 1f3e 7507 9fbd de52 1d3d
00000160: 4950 bcbd 21d3 b23d aff9 a13e 54c0 913b
00000170: 8ff9 8cbe 6ae3 82be 673f b9bc 4251 b63d
00000180: 0cf2 483e 9654 103e 6893 be3e affa be3d
00000190: cdcb 933e b858 bbbd c072 c1bd d3ae bfbd
000001a0: d5c2 513d ef8d a13d 8a69 4e3e 451f 97be
000001b0: 59ba 803e e60c 233e e00c 323d e447 4ebd
000001c0: c5de d0bb 462b fbbd 1bac dfbc ab81 19be
000001d0: c014 643e 4961 163e 5711 463e a963 6001
000001e0: d15c 523e 5593 42bc 7aac 26bd b6f6 51bd
000001f0: 9f1d f73d cd5e 7fbe 96fd 303e 9dbe 883e
00000200: 366f 36be 2a60 8bbd 0f6d b5bd 6dce bbbd
00000210: b748 e53d a544 7c3d cdbe 153e 12ab d63e
00000220: 1069 4a3e 6427 233e 126b 273e c7bd 113e
00000230: 292e 82bc cbb5 06be 53fe 3a3e 8a22 5dbe
00000240: 84cc 1f3e d99a 813e 34a9 dbbd b27a 6bbe
00000250: 8cef 98bd f3dc 00be 4bed a73e 1e68 763d
00000260: 9375 243e 1805 583e f8b7 a73e 1dd6 3f3c
00000270: 82c2 e43d 4307 a03b f5d7 24be 2c8f 4a3d
00000280: 5d34 5c3e c9c6 d4be 391b 353e 040f b43d
00000290: f8e2 f6bd fd54 0bbe 798e 3b3e e687 50bd
000002a0: 4fb7 ec3d e835 a23b 3714 2a3e dfe4 ae3e
000002b0: 3d93 ad3e 2716 a6be 7deb 783d df8a 1d3e
000002c0: 5006 b23d dcd6 d0bd b88f 323e de35 21be
000002d0: ccf2 ea37 857e 8037 382f 81b6 8aa8 5db7
000002e0: 78c8 e2bc 74dc 74b8 0afa 1b37 8878 e936
000002f0: d697 fd37 2538 f937 96b6 fe37 a99b 1eb6
00000300: 50a6 eeb8 71d9 94ba f9be b9b7 9dd3 5fb7
00000310: 14bf 11b6 53bd d6b7 1aad f436 10eb c837
00000320: b993 5937 aac0 f1b6 7e03 43bd 1dae b3b6
00000330: 50b8 aeb7 1817 6db4 3212 f336 1468 f236
00000340: b24a ee36 9a22 5281 ac87 ddb7 621b a1bb
00000350: 1b73 c6b7 271b 59b7 51db 17b6 3666 d2b7
00000360: 4549 39b7 8bdd d937 d200 0c38 a1db 3837
00000370: 0d4e 26bc c820 1eb7 7969 68b7 52bb 07b5
00000380: 27fb 66b7 952e 67b7 0579 89b7 ac7d b835
00000390: 810c a2b8 c71d f6bb fc81 c6b7 87e9 5fb7
000003a0: dbff 17b6 8af9 d6b7 da70 beb5 5dc2 7438
000003b0: 41e7 db37 b0b4 9937 d97c 3fbc 3e42 5cb8
000003c0: 122d 9d37 8f2f 4eb6 72f8 6ab6 7242 24b6
000003d0: e3ee 99b6 16c2 fdb4 1826 1cb8 e459 f7bb
000003e0: b03f c4b7 e18f 5eb7 eaff 17b6 5108 d8b7
000003f0: bd5c 14b7 a1b1 5838 024f 1538 c48a b237

lstm.weight_hh_l0 f4 [128, 32]
0.01429661 -0.005559133 -1.6671008e-09 0.0019339715 0.015740054 0.041750018 0.009963069 2.4083058e-10
0.0067082373 -0.076993905 -0.02186076 -0.0018075842 -0.062260192 0.013439191 0.00011155072 0.012607285
0.02755297 -0.0018308961 -0.027262202 -0.00627013 0.010321085 1.3965328e-10 0.009924728 -0.0146942
-0.033819456 -0.007220195 -0.010222289 0.031725034 -0.016290003 0.015416883 -0.012931589 -0.0050780224
0.03747803 -0.08875747 4.4603283e-07 -0.039295968 0.010783119 0.011505213 -0.08432266 2.6407237e-05
0.081599005 0.041972045 0.026758814 0.004821305 0.13750263 0.016626686 -0.078187905 0.07461163
0.20081045 0.10175649 0.21480227 0.03426914 -0.13713025 0.000101920064 0.10030179 0.13878277
0.09715323 0.026321005 -0.09910904 -0.08749683 -0.13389069 0.103128776 0.040012788 0.01962896
-6.069219e-06 1.4823966e-07 -3.614306e-10 6.7601964e-06 -2.071111e-08 8.51468e-06 -1.3921637e-05 7.027103e-11
-8.944596e-06 3.890946e-05 -4.4992055e-07 -2.8617546e-08 2.6718042e-05 -1.0070157e-05 -2.897477e-07 3.125849e-05
-1.4576186e-07 -2.118227e-08 8.113177e-08 -1.4111984e-07 -8.446843e-08 -2.2067819e-09 -9.67629e-06 -1.4466329e-07
2.119743e-05 1.4372705e-05 -8.1174255e-07 1.5211721e-05 1.1420254e-05 -1.2768488e-05 5.4163365e-07 2.004756e-09
-0.012868295 -0.002798852 -8.2013415e-12 -0.012736294 5.6236433e-09 0.00041012428 -0.002261193 2.4605582e-12
0.01071358 0.03028939 -0.015119238 -0.0032497926 -0.015371607 0.0161297 1.7292134e-08 -0.0015028412
-0.013519539 3.4927216e-05 -0.00016329397 -0.013655837 -0.00010157372 -5.3763825e-12 -0.0007330297 0.0019437614
0.00084621005 0.00011011497 0.00889905 -0.0012394403 -0.0064655896 0.03674678 -0.0049803536 0.0022270698
0.013697671 -0.13354176 3.72315e-06 0.08115812 0.16864248 -0.022156646 0.24978709 8.553989e-06
0.12386058 -0.113332175 0.005481283 -0.059484396 0.03157408 -0.01976218 -0.017814396 0.18164301
0.15537727 0.0062044826 0.020504462 0.050442457 -0.11857189 0.00015592594 -0.13461871 -0.022178257
-0.002016199 0.08732711 -0.006661248 0.108156145 0.13250272 0.004340553 0.060637843 -0.050342627
0.029129887 0.06294684 -3.930772e-08 0.030198393 -0.060039107 0.14324704 0.016047422 3.4632371e-06
0.048882235 0.016327593 -0.047165412 0.03177358 -0.114505254 0.08978886 0.0016441339 0.0030641893
0.02042482 0.0063238065 0.0045024343 0.053752072 0.005991518 0.0015730646 -0.0007053076 0.047530156
-0.007475817 0.036178816 0.17770645 0.0126302345 0.027538521 -0.013879956 -0.12651724 -0.07024093
-2.4904393e-06 6.365021e-05 1.6546051e-09 0.0023230705 4.5316015e-06 -0.0030854042 0.00096942746 -2.987088e-09
-0.00011093556 0.0037052787 -0.00020842884 1.303499e-05 0.0004986572 0.0039096074 2.0025218e-05 0.00025948265
-1.3131566e-05 -0.001097416 -1.7091614e-05 7.3587144e-06 -9.528788e-05 -1.4032265e-08 8.7696244e-05 0.004016008
0.0012465251 0.00045752813 2.7520067e-05 -0.00017473366 0.000108400935 -0.001824273 -0.00021306911 -5.564142e-06
9.864457e-06 -5.2848495e-06 -1.775975e-10 2.0218968e-05 4.0886825e-06 -3.1474249e-06 -4.0840237e-06 -1.9227657e-10
-3.5311655e-06 -2.508899e-05 3.2593516e-06 -1.4030802e-06 1.1319237e-05 8.492995e-06 -6.1150963e-06 6.5113513e-06
2.8838858e-06 2.0861421e-07 -5.6746703e-06 -6.0892677e-07 -2.3275726e-07 1.6912976e-11 3.1880782e-06 5.956706e-06
-7.7082973e-07 5.343789e-06 -3.0253932e-07 6.358211e-06 -6.238203e-06 -1.6318145e-05 9.356697e-06 1.8111507e-07
00000000: 543c 6a3c 6329 b6bb e51f e5b0 517d fd3a
00000010: 49f1 803c 1102 2b3d 243c 233c e465 842f
00000020: c6d0 db3b fbae 9dbd 5615 b3bc 76ec ecba
00000030: 8b04 7fbd 0d30 5c3c 56f0 e938 c98e 4e3c
00000040: c4b6 e13c aefa efba fb54 dfbc aa75 cdbb
00000050: c519 293c e78c 192f 549b 223c f1bf 70bc
00000060: 4586 0abd 6397 ecbb 637b 27bc 1cf2 013d
00000070: 9d72 85bc 1897 7c3c 04df 53bc 8a65 a6bb
00000080: 9082 193d 7ac6 b5bd 4976 ef34 cff4 20bd
00000090: aeab 303c 5c80 3c3c 5cb1 acbd 1c85 dd37
000000a0: 611d a73d e1ea 2b3d 4d35 db3c 0afc 9d3b
000000b0: 7dcd 0c3e b034 883c fb20 a0bd fbcd 983d
000000c0: 41a1 4d3e b565 d03d 20f5 5b3e cc5d 0c3d
000000d0: df6b 0cbe ebbd d538 066b cd3d 121d 0e3e
000000e0: 46f8 c63d 269f d73c aef9 cabd 8a31 b3bd
000000f0: a41a 09be 2e35 d33d 73e4 233d eacc a03c
00000100: 32a6 cbb6 cf2b 1f34 d6b2 c6af a5d5 e236
00000110: 36e8 b1b2 46da 0e37 fa90 69b7 1387 9a2e
00000120: bf10 16b7 b732 2338 9c8c f1b4 a6d2 f5b2
00000130: 8f20 e037 fff2 28b7 9f8e 9bb4 8c1b 0338
00000140: b782 1cb4 4ef4 b5b2 aa3a ae33 ba86 17b4
00000150: 0365 b5b3 1ea6 17b1 5957 22b7 be54 1bb4
00000160: 22d1 b137 4c22 7137 86e6 59b5 d835 7f37
00000170: 9e99 3f37 3d38 56b7 c864 1135 0ac4 0931
00000180: 8bd5 52bc f26c 37bb 8f47 10ad e4ab 50bc
00000190: 173a c131 f305 d739 8630 14bb 7a25 2d2c
000001a0: 0388 2f3c 7421 f83c aeb6 77bc 79fa 54bb
000001b0: 31d9 7bbc 6f22 843c ce89 9432 fcfa c4ba
000001c0: 0e81 5dbc d07e 1238 e439 2bb9 bbbc 5fbc
000001d0: fa03 d5b8 262a bdac ca28 40ba cfc5 fe3a
000001e0: 32d4 5d3a 86ed e638 52cd 113c b774 a2ba
000001f0: 4cdd d3bb cb83 163d 3c32 a3bb 08f4 113b
00000200: 326c 603c 2cbf 08be 3bdb 7936 3a36 a63d
00000210: 9db0 2c3e db81 b5bc 30c8 7f3e 1a83 0f37
00000220: 9eaa fd3d b31a e8bd 569c b33b e9a5 73bd
00000230: d353 013d 4ce4 a1bc 7fef 91bc a000 3a3e
00000240: 381b 1f3e f94e cb3b f9f8 a73c c09c 4e3d
00000250: d2d5 f2bd 0d80 2339 7dd9 09be 2daf b5bc
00000260: 3522 04bb 8ed8 b23d 9946 dabb f880 dd3d
00000270: cbae 073e 333b 8e3b 635f 783d 1234 4ebd
00000280: cda1 ee3c 46ea 803d 4cd3 28b3 9f62 f73c
00000290: 91eb 75bd 5aaf 123e e275 833c f669 6836
000002a0: bd38 483d 72c1 853c 8530 41bd 0325 023d
000002b0: bb81 eabd 39e3 b73d fb7f d73a 91d0 483b
000002c0: f451 a73c ef37 cf3b 2889 933b 222b 5c3d
000002d0: 7f54 c43b 4a2f ce3a 64e4 38ba fbae 423d
000002e0: b3f7 f4bb 3d30 143d aef8 353e 0bef 4e3c
000002f0: 7798 e13c c168 63bc bc8d 01be 7ada 8fbd
00000300: 6c21 27b6 f27b 8538 3e68 e330 a83e 183b
00000310: 290e 9836 7e34 4abb 2d21 7e3a 6845 4db1
00000320: 13a6 e8b8 43d4 723b b18d 5ab9 dbb0 5a37
00000330: 51b8 023a 2a1c 803b d4fb a737 2c0b 8839
00000340: a64f 5cb7 2cd7 8fba f65f 8fb7 e0ea f636
00000350: 4bd5 c7b8 8e12 71b2 90e9 b738 b898 833b
00000360: 7162 a33a 63e0 ef39 e5da e637 b638 37b9
00000370: 4f55 e338 721c efba 4e6b 5fb9 9eb3 bab6
00000380: 857f 2537 8354 b1b6 4145 43af e79b a937
00000390: 8431 8936 5938 53b6 7f09 89b6 0b69 53af
000003a0: f6f8 6cb6 3276 d2b7 3cbb 5a36 7851 bcb5
000003b0: c1e7 3d37 237d 0e37 4730 cdb6 157c da36
000003c0: c888 4136 70ff 5f34 0c69 beb6 2175 23b5
000003d0: d4eb 79b4 a3c4 942d c4f2 5536 b7df c736
000003e0: 04eb 4eb5 cc4e b336 b06c a2b4 9e58 d536
000003f0: c151 d1b6 f3e2 88b7 b5fa 1c37 8878 4234

lstm.bias_ih_l0 f4 [128]
0.0035442477 -0.063015185 -6.947197e-06 0.069779865 0.04351801 0.12768573 0.0042784917 -2.102258e-05
0.15820323 0.032498002 -0.033282124 -0.050225064 0.114490755 -0.0037813298 0.0023839294 -0.04388248
-0.027001288 0.11017742 0.103506096 0.11259792 0.044212207 -0.0009428688 0.004264073 -0.06703291
-0.06128951 0.039932616 -0.0029295296 -0.015820405 0.0768759 0.024267465 -0.0010976163 0.015587807
0.043397367 -0.015893163 5.0318523e-08 -0.00013142741 -0.08588641 -0.006818309 0.000298405 -0.0002437031
0.14060971 -0.054800645 -0.070046216 0.0005184063 0.024656743 0.02427287 -0.0013626529 0.06572551
0.0875068 -0.029041888 -0.03100477 0.037910804 -0.03800285 1.6438556e-05 -0.0008623942 -0.06580858
-0.08458699 -0.04646624 0.020739531 0.031326618 0.142053 -0.041997112 -0.06876621 -0.070256226
0.03708417 -0.06065134 -1.6311884e-05 -0.00023587853 0.12341398 -0.025608467 -0.0006285869 -2.36026e-05
-0.03758172 0.18347917 -0.025650837 0.012773398 -0.06580138 -0.037678797 0.0011927395 -0.15901357
0.10891323 0.107107796 -0.0069944873 -0.02880151 -2.7989858e-05 0.00033585815 -0.054032058 -0.033217337
-0.16559184 0.09037017 -0.12772915 -0.014845051 0.005131964 -0.04820382 -0.11422243 -0.027959207
0.01636418 -0.11156967 -1.7491966e-05 0.009498065 -0.061728876 -0.021548573 0.010834816 -3.702909e-05
-0.12147108 0.014250876 -0.07090235 0.12939472 0.06676389 0.07423469 -0.021707157 0.12630779
0.122621894 0.07002991 0.014715651 -0.16067795 0.09039328 0.0060425396 8.643709e-06 0.022762116
0.10793755 -0.056606784 0.055853155 0.16594982 -0.10072211 -0.021740744 -0.0784971 0.060147095
00000000: 9c46 683b 1b0e 81bd f81b e9b6 bfe8 8e3d
00000010: f13f 323d 0cc0 023e 9732 8c3b a659 b0b7
00000020: 0700 223e a01c 053d d652 08bd ccb8 4dbd
00000030: 217a ea3d 30d0 77bb b33b 1c3b 1ebe 33bd
00000040: ce31 ddbc b3a4 e13d 01fb d33d bd99 e63d
00000050: dc17 353d db2a 77ba a3b9 8b3b 8d48 89bd
00000060: b60a 7bbd 6290 233d 5afd 3fbb cb99 81bc
00000070: 1d71 9d3d 90cc c63c e4dd 8fba 0064 7f3c
00000080: 70c1 313d 6132 82bc cd1d 5833 c7cf 09b9
00000090: 37e5 afbd 1f6c dfbb 3e73 9c39 8e8a 7fb9
000000a0: fefb 0f3e a476 60bd 6474 8fbd a8e5 073a
000000b0: f0fc c93c e6d7 c63c 0b9b b2ba 199b 863d
000000c0: c436 b33d 41e9 edbc b7fd fdbc 5c48 1b3d
000000d0: e0a8 1bbd 88e5 8937 4c12 62ba a6c6 86bd
000000e0: f23b adbd 6253 3ebd f3e5 a93c 5750 003d
000000f0: 5776 113e 2a05 2cbd 4cd5 8cbd 7fe2 8fbd
00000100: 92e5 173d 8a6d 78bd 81d5 88b7 2956 77b9
00000110: 78c0 fc3d d9c8 d1bc c1c7 24ba 33fe c5b7
00000120: 4aef 19bd f7e1 3b3e b421 d2bc 8447 513c
00000130: e0c2 86bd 1555 1abd b255 9c3a 74d4 22be
00000140: e60d df3d 555b db3d 0332 e5bb 25f1 ebbc
00000150: c3cb eab7 1e16 b039 b850 5dbd e70e 08bd
00000160: e890 29be ff13 b93d 6ecb 02be a838 73bc
00000170: 092a a83b 5e71 45bd 73ed e9bd b50a e5bc
00000180: 2c0e 863c a47e e4bd b6bb 92b7 c69d 1b3c
00000190: 6bd7 7cbd a286 b0bc 8384 313c af4f 1bb8
000001a0: d4c5 f8bd 827c 693c 4035 91bd 0d80 043e
000001b0: 82bb 883d 5b08 983d 35d3 b1bc d456 013e
000001c0: 3021 fb3d d76b 8f3d ea19 713c c388 24be
000001d0: 1d20 b93d 7f00 c63b 7304 1137 9e77 ba3c
000001e0: 5d0e dd3d 84dc 67bd 47c6 643d c0ee 293e
000001f0: 6547 cebd a519 b2bc 16c3 a0bd cd5c 763d

lstm.bias_hh_l0 f4 [128]
0.0010783552 0.16341451 -6.9993557e-06 0.020573001 0.0022193424 0.036309533 0.0042852787 -2.1058504e-05
-0.062082507 0.03921056 -0.033206042 -0.0065617985 -0.008860691 -0.0036594272 0.0026760884 -0.05756653
-0.06906102 0.010619652 -0.0016650774 -0.011477976 0.022914935 -0.00093738514 0.07503739 -0.011520476
-0.0027900527 -0.12148228 -0.0802679 -0.090718806 0.014610255 0.016469007 -0.0010484979 -0.009110945
-0.016299037 -0.1400092 5.0379477e-08 -0.00013148066 0.07147898 -0.09814104 0.00026597688 -0.000246161
0.11164515 0.017165089 -0.07145933 0.00052916433 0.0129422415 -0.023276843 -0.001362577 -0.072040394
-0.039326195 0.0038508922 -0.0108149955 0.023083437 -0.032552835 1.6477801e-05 0.0004339062 -0.0566502
-0.20315313 -0.05128225 -0.14264162 0.015680868 0.13486141 -0.0766096 -0.046720583 -0.066218145
-0.055485424 0.0053927545 0.000114353265 -0.00029049444 0.12474218 -0.022407591 -0.00045976523 -2.2716875e-05
-0.129591 0.17626026 -0.025614796 0.04229822 -0.06559375 -0.020842582 0.0011930023 0.056756277
-0.16574433 -0.023584085 -0.07942834 0.037399292 -2.8144366e-05 0.00040070384 0.030462954 -0.029367575
-0.010276049 -0.013211131 0.14819168 -0.014988434 -0.0708131 0.038295764 -0.1439286 -0.043796204
-0.010973936 0.010295184 -1.6994436e-05 -0.0033895741 -0.13066679 0.083824284 0.010571092 -3.7055528e-05
0.097135656 0.008124014 -0.06552995 0.011388202 0.16753374 0.07468847 -0.022464346 -0.008551908
0.069859676 0.055484552 0.10789532 -0.2290813 0.074937746 0.009839524 1.8918892e-06 0.1363213
-0.029029243 0.08299468 -0.095124744 -0.06286453 0.03862725 0.049798835 -0.10549693 -0.0770429
00000000: 9957 8d3a 2256 273e 02dc eab6 b688 a83c
00000010: 6372 113b 4eb9 143d 866b 8c3b cba6 b0b7
00000020: 3a4a 7ebd 419b 203d 0f03 08bd 5b04 d7bb
00000030: 6f2c 11bc 00d3 6fbb 5061 2f3b e2ca 6bbd
00000040: dd6f 8dbd 0dfe 2d3c ba3e daba 1f0e 3cbc
00000050: 1ab8 bb3c daba 75ba 34ad 993d 61c0 3cbc
00000060: 51d9 36bb b4cb f8bd 7f63 a4bd c8ca b9bd
00000070: da5f 6f3c 03ea 863c c06d 89ba 1346 15bc
00000080: 8f85 85bc 925e 0fbe d260 5833 12de 09b9
00000090: 9263 923d 2bfe c8bd d072 8b39 2c0f 81b9
000000a0: 36a6 e43d cd9d 8c3c 4559 92bd 9eb7 0a3a
000000b0: b20b 543c 14af bebc 7f98 b2ba ea89 93bd
000000c0: 8114 21bd 405f 7c3b 6131 31bc 7a19 bd3c
000000d0: 1f56 05bd cf39 8a37 e87d e339 0a0a 68bd
000000e0: 6007 50be 560d 52bd a510 12be 2a75 803c
000000f0: 1c19 0a3e 7ee5 9cbd 155e 3fbd 619d 87bd
00000100: af44 63bd b4b5 b03b f1d0 ef38 814d 98b9
00000110: d478 ff3d 2090 b7bc a50c f1b9 1e90 beb7
00000120: 81b3 04be 927d 343e 1fd6 d1bc e640 2d3d
00000130: 0456 86bd 10be aabc 845e 9c3a 4579 683d
00000140: e2b8 29be 6933 c1bc 53ab a2bd 0030 193d
00000150: 9117 ecb7 8f15 d239 728d f93c 4594 f0bc
00000160: e05c 28bc 8073 58bc 8fbf 173e 0c92 75bc
00000170: 7506 91bd 05dc 1c3d 0562 13be a663 33bd
00000180: 06cc 33bc 22ad 283c 468f 8eb7 9e23 5ebb
00000190: 84cd 05be 11ac ab3d 6032 2d3c 126c 1bb8
000001a0: 0fef c63d 961a 053c 9134 86bd 9595 3a3c
000001b0: f78d 2b3e 45f6 983d 2607 b8bc 4d1d 0cbc
000001c0: 9712 8f3d c543 633d 39f8 dc3d 4a94 6abe
000001d0: f678 993d f435 213c d1ec fd35 d097 0b3e
000001e0: bcce edbc 1df9 a93d c3d0 c2bd 1ebf 80bd
000001f0: 9b37 1e3d ddf9 4b3d c60e d8bd abc8 9dbd

lstm.weight_ih_l1 f4 [128, 32]
-0.060990993 -0.09855339 -0.0007505099 -0.12809753 -0.113639906 0.18909144 -0.060321037 0.00017027566
0.058492374 0.0910587 -0.14136945 0.10092796 0.03335509 -0.016631514 0.052092142 0.038876392
0.039536264 -0.03323427 -0.07180215 0.15288585 -0.18129225 0.0028346526 -0.028286599 -0.096802086
-0.07772762 0.16732895 0.068744265 -0.17956758 -0.1160476 -0.05738994 0.06602085 0.029881686
0.074881665 -0.11678275 2.1320628e-05 -0.0052352943 0.051735833 -0.022346811 -0.3585492 2.9510915e-05
-0.034236785 0.030003209 -0.120736636 0.044230986 0.01771877 -0.027079294 -0.00266367 -0.066804744
0.13237433 0.07652625 0.010112054 -0.012678888 -0.1090725 0.0033380936 -0.04129704 0.005647653
0.1429869 0.068621196 -0.09278872 -0.109846674 0.15564658 0.055993203 -0.114333294 0.06758511
0.14232779 0.12711196 0.00012711104 -0.03685241 -0.015380545 -0.13252912 0.009533044 -0.0043296353
-0.20932561 0.112042315 -0.057700638 -0.11560475 0.09092283 -0.08265152 0.03321651 -0.013056112
0.16978383 -0.12555271 -0.02854384 -0.00874799 0.036883194 -0.00416233 -0.13114955 -0.15519778
-0.001327499 -0.15730315 -0.18973692 -0.16269115 0.0999045 -0.061338257 0.15725909 0.093541875
-0.16753666 0.074444875 -0.000107159474 0.013467681 -0.023753557 -0.13485834 0.018990189 0.00012655609
-0.023650268 0.14033285 0.01981273 0.07025089 -0.116815716 0.1050663 -0.19641154 -0.086043954
-0.15093894 0.26523224 -0.000850983 0.0762204 0.14165865 0.010322436 0.028137665 -0.03590882
-0.0506412 -0.016880615 0.15579587 0.010658415 0.12020519 0.12913749 -0.1707559 -0.05601909
0.006559131 -0.023285206 2.4439134e-05 -0.00047196168 -0.16969101 -0.0024798682 0.10223444 -2.9816296e-05
0.046946075 -0.0199804 0.073940165 -0.060220845 -0.04836835 0.13220708 0.03990431 -0.08927842
0.0414711 -0.1386728 -0.11928031 0.078647174 0.047692884 0.021606969 -0.008425152 -0.08094711
-0.04902432 0.12270463 0.088731565 -0.17000271 0.007950194 -0.09253345 0.26031783 0.13348635
0.054847788 -0.09709771 1.1307153e-05 -0.054241594 0.029237134 -0.09121056 -0.09179003 2.3946928e-05
-0.18338366 -0.13962713 -0.17987934 -0.009664209 -0.01284631 -0.0886361 0.009725092 0.16014062
-0.0034392255 -0.09480337 0.15843502 0.07746424 0.07130966 0.0026058836 -0.039936252 -0.09144099
-0.12730405 0.0027068718 -0.10021572 0.20433812 0.012963235 -0.12990165 0.15492742 0.0929223
0.04989062 0.058445502 1.9781091e-05 -0.056877278 0.03855534 -0.15937538 0.08925217 0.0010198199
-0.11298537 -0.14549565 -0.17660618 -0.032568447 0.02463849 -0.06474777 0.013546684 -0.11014475
-0.08686225 0.17114304 0.083142616 -0.13162912 0.21857356 0.0035893165 0.028422687 -0.073778234
0.19151376 -0.08817516 -0.0117633995 -0.1345037 -0.011730507 0.09164064 -0.01854224 0.014684386
0.1061136 0.08159298 -4.444215e-06 -0.054929305 -0.00042006106 -0.13676389 0.03327171 -2.3489329e-05
-0.13485777 -0.07441453 0.118807524 -0.19260773 0.031171776 0.07223695 -0.06411131 -0.045860827
-0.068119384 0.08411309 0.1274612 0.03527348 0.07151724 0.010440544 0.027163384 -0.0041223643
0.2220973 -0.2154122 0.06615959 -0.09545917 0.10233296 -0.15714557 0.04662409 -0.017811742
00000000: b1d1 79bd 5cd6 c9bd debd 44ba 002c 03be
00000010: 0abc e8bd 30a1 413e 3113 77bd 068c 3239
00000020: b395 6f3d fc7c ba3d 27c3 10be 51b3 ce3d
00000030: 599f 083d d03e 88bc 925e 553d da3c 1f3d
00000040: c7f0 213d a820 08bd 010d 93bd 1c8e 1c3e
00000050: ada4 39be 94c5 393b 4cb9 e7bc 2c40 c6bd
00000060: a92f 9fbd 4858 2b3e cbc9 8c3d 90e0 37be
00000070: 5daa edbd b711 6bbd f035 873d 70ca f43c
00000080: 8f5b 993d cb2b efbd b3d9 b237 d58c abbb
00000090: f4e8 533d a910 b7bc c393 b7be 358e f737
000000a0: df3b 0cbd 4ac9 f53c c544 f7bd 8d2b 353d
000000b0: f426 913c 65d5 ddbc f890 2ebb edd0 88bd
000000c0: 238d 073e cbb9 9c3d 07ad 253c 1cbb 4fbc
000000d0: 6761 dfbd ebc3 5a3b 1627 29bd f20f b93b
000000e0: 286b 123e 4589 8c3d 0308 bebd 4bf7 e0bd
000000f0: d161 1f3e 2159 653d 9327 eabd 106a 8a3d
00000100: 60be 113e a329 023e 1c49 0539 8df2 16bd
00000110: aefe 7bbc b7b5 07be 7c30 1c3c 9ddf 8dbb
00000120: 7459 56be 7176 e53d 8157 6cbd 2fc2 ecbd
00000130: c035 ba3d 3345 a9bd 090e 083d 4ee9 55bc
00000140: d0db 2d3e e490 00be c5d4 e9bc bb53 0fbc
00000150: d512 173d 2864 88bb 114c 06be 2bec 1ebe
00000160: 7aff adba 1414 21be 654a 42be 8298 26be
00000170: bb9a cc3d d33d 7bbd 8708 213e e292 bf3d
00000180: bb8e 2bbe 8e76 983d ceba e0b8 8ca7 5c3c
00000190: d296 c2bc 4e18 0abe 5091 9b3c 24b4 0439
000001a0: 35be c1bc 6ab3 0f3e 4e4e a23c b3df 8f3d
000001b0: 143d efbd 002d d73d 1b20 49be d037 b0bd
000001c0: bd8f 1abe 85cc 873e 8114 5fba 7119 9c3d
000001d0: f70e 113e 6f1f 293c f680 e63c 2015 13bd
000001e0: 266d 4fbd 3749 8abc f488 1f3e a2a0 2e3c
000001f0: 232e f63d 9e3c 043e a2da 2ebe 4674 65bd
00000200: fbed d63b 9ec0 bebc a402 cd37 a071 f7b9
00000210: 7bc3 2dbe 4985 22bb 4a60 d13d 021e fab7
00000220: 874a 403d f0ad a3bc f16d 973d 22aa 76bd
00000230: e41d 46bd 4b61 073e b472 233d 9bd7 b6bd
00000240: 9add 293d 3e00 0ebe 3c49 f4bd c511 a13d
00000250: 9d59 433d 1901 b13c a609 0abc 99c7 a5bd
00000260: bacd 48bd 914c fb3d e5b8 b53d 3115 2ebe
00000270: 8841 023c 2d82 bdbd 6148 853e a5b0 083e
00000280: 13a8 603d 2adb c6bd dab3 3d37 6f2c 5ebd
00000290: b782 ef3c 9acc babd 69fc bbbd a3e1 c837
000002a0: edc8 3bbe 6afa 0ebe 4a32 38be a156 1ebc
000002b0: 5479 52bc d886 b5bd fe55 1f3c e7fb 233e
000002c0: a164 61bb 4528 c2bd ca3c 223e 92a5 9e3d
000002d0: cd0a 923d 79c7 2a3b 3294 23bd 6a45 bbbd
000002e0: fe5b 02be c665 313b e63d cdbd 033e 513e
000002f0: c063 543c f004 05be 4ba5 1e3e 0c4e be3d
00000300: 1b5a 4c3d 8d64 6f3d 92ef a537 26f8 68bd
00000310: 34ec 1d3d 4d33 23be d7c9 b63d 7aab 853a
00000320: e064 e7bd d0fc 14be 40d8 34be 7e66 05bd
00000330: a9d6 c93c 7b9a 84bd e9f2 5d3c 9293 e1bd
00000340: d6e4 b1bd 1f40 2f3e ad46 aa3d c9c9 06be
00000350: bfd1 5f3e bd3a 6b3b b2d6 e83c 0b19 97bd
00000360: 2f1c 443e 2e95 b4bd 46bb 40bc 57bb 09be
00000370: 5031 40bc 16ae bb3d e5e5 97bc c796 703c
00000380: 1652 d93d 381a a73d 841f 95b6 8dfd 60bd
00000390: a43b dcb9 d50b 0cbe eb47 083d f30a c5b7
000003a0: 2818 0abe a566 98bd 5c51 f33d f63a 45be
000003b0: f45b ff3c f7f0 933d ca4c 83bd 90d8 3bbd
000003c0: 2d82 8bbd 7c43 ac3d 3085 023e ed7a 103d
000003d0: a177 923d d10e 2b3c bf85 de3c e614 87bb
000003e0: 7a6d 633e 0495 5cbe ae7e 873d 1980 c3bd
000003f0: f193 d13d c5ea 20be e7f8 3e3d eee9 91bc

lstm.weight_hh_l1 f4 [128, 32]
0.1107806 0.18126604 0.15925157 0.13406676 0.14711411 -0.012501958 0.10139516 -0.1820107
-0.0008330999 0.10148834 -0.067617096 0.1335734 0.05493313 -0.0006787715 -0.10022868 0.1067377
-0.012805634 -0.030935545 -0.14020075 -0.07631444 0.088259034 0.17537822 -0.038548943 0.04819751
0.09891403 0.13901031 -0.14540821 0.06354081 -0.20004518 0.061567526 -0.04516522 0.07524749
0.17438069 -0.06910009 0.006332625 -0.08786735 0.043419704 0.016838372 0.09928425 -0.060794305
0.18663728 0.055433698 0.06665476 0.115267426 0.0804286 -0.08768727 0.002851948 0.104632676
-0.025757363 -0.12448617 -0.11740387 0.00025045068 -0.072663575 0.09011659 -0.1189339 -0.009175346
0.026099356 0.0051350147 0.11462395 0.012073996 -0.01642961 -0.19550432 0.0636598 -0.1574167
-0.005186456 -0.09800681 0.12614173 -0.07270911 0.21801184 0.044349913 -0.16790578 -0.07457991
-0.04301884 -0.0047017396 0.00723555 -0.10471404 0.1460052 0.073202364 0.10345779 0.0091345
0.08609022 0.054908477 0.17680854 -0.17672983 -0.0871935 0.0112031745 -0.12528974 -0.21498804
-0.024107037 0.021428658 -0.20905107 0.054866478 -0.08450411 0.10082441 0.19889793 -0.23720281
-0.14576612 0.03301185 0.17790069 0.08914496 -0.03811863 0.04575956 -0.045524117 -0.24153008
0.005101303 -0.2149105 -0.16837749 0.09004032 0.0094153 -0.021324178 0.08233022 0.12540005
-0.008003953 0.17271608 0.10985227 0.08672452 -0.052713603 -0.109539926 -0.24701123 0.060882133
-0.1321901 -0.07721369 -0.04796481 0.09853066 0.0555673 -0.0876159 -0.123774976 0.077884704
0.08409509 -0.05350915 -0.07787101 -0.059470844 -0.0057982407 0.18486898 0.10286487 -0.14972301
-0.089519106 -0.026364082 -0.1864296 0.23541798 0.16799922 0.12510505 -0.10626248 -0.088510506
0.1250997 0.10226675 0.1562072 -0.08735146 -0.0039184056 0.0122786015 -0.017845938 -0.17623466
0.004891201 0.17905925 0.03905361 -0.055642255 -0.012279648 -0.044081848 -0.0830808 -0.04542298
0.11807914 -0.042286508 -0.16851011 0.11272811 0.09724854 -0.15774326 -0.1334252 0.11922692
0.07086617 0.06735876 0.089648455 0.07179419 -0.1701126 0.06447977 0.106050305 -0.12451249
-0.03393123 0.07963605 0.00359028 -0.21108782 -0.1396544 0.18143614 0.07736862 -0.07199103
0.044097193 0.004226172 -0.043522194 -0.09975247 0.102615006 0.022383157 0.009469851 -0.0376119
-0.17349161 -0.06010909 0.06311139 0.12652749 0.035720143 0.0027462787 0.051972657 -0.0504427
-0.089531645 0.09738908 0.016672142 0.16102594 -0.020717243 -0.017406836 -0.2015664 0.14362521
0.06004276 0.19294211 0.01083286 0.031023495 0.17456363 -0.12050578 -0.15179805 0.026690451
-0.047619637 -0.16778114 -0.011672331 -0.1561298 0.16027176 -0.08301953 0.09835293 -0.05299916
0.070972204 0.03219255 0.16225815 0.14940368 -0.098335624 0.25776705 -0.05345618 0.14237563
-0.017552957 0.129735 -0.025048349 -0.01374846 0.15543061 -0.15200932 -0.14309359 0.07943739
0.032400683 0.24954952 0.07077061 0.068990715 0.15219969 -0.09078909 -0.30730787 -0.24114408
-0.13970235 -0.018276885 0.11089749 -0.19740933 0.15228501 0.2506733 -0.16036703 0.13772327
00000000: f0e0 e23d ce9d 393e d812 233e cc48 093e
00000010: 15a5 163e 03d5 4cbc 44a8 cf3d 0361 3abe
00000020: 6364 5aba 1ed9 cf3d d57a 8abd 77c7 083e
00000030: 9001 613d 96ef 31ba b244 cdbd 4c99 da3d
00000040: b9ce 51bc 8a6c fdbc c990 0fbe bf4a 9cbd
00000050: 27c1 b43d 5996 333e 7fe5 1dbd c16a 453d
00000060: 7093 ca3d b858 0e3e e4e5 14be af21 823d
00000070: a5d8 4cbe 3b2e 7c3d 2aff 38bd 5b1b 9a3d
00000080: da90 323e 5984 8dbd e981 cf3b ccf3 b3bd
00000090: dcd8 313d a0f0 893c 8a55 cb3d 7303 79bd
000000a0: d81d 3f3e 720e 633d 4a82 883d 5411 ec3d
000000b0: c0b7 a43d 6295 b3bd bfe7 3a3b a849 d63d
000000c0: 1b01 d3bc 9bf2 febd 7171 f0bd ec4e 8339
000000d0: a4d0 94bd 0c8f b83d 9e93 f3bd 3154 16bc
000000e0: 51ce d53c a043 a83b f6bf ea3d 02d2 453c
000000f0: 6497 86bc 4932 48be 1260 823d d831 21be
00000100: 25f3 a9bb cbb7 c8bd 4c2b 013e 84e8 94bd
00000110: 7f3e 5f3e 41a8 353d 7eef 2bbe 5abd 98bd
00000120: 8634 30bd 0d11 9abb 3118 ed3b 5174 d6bd
00000130: 6382 153e 1feb 953d aee1 d33d dfa8 153c
00000140: 1250 b03d b6e7 603d 4c0d 353e aaf8 34be
00000150: 8192 b2bd 858d 373c f44b 00be d325 5cbe
00000160: 1f7c c5bc 278b af3c 7c11 56be acbb 603d
00000170: 7e10 adbd 077d ce3d e6ab 4b3e 4be5 72be
00000180: b743 15be 6f37 073d 992b 363e a291 b63d
00000190: 4822 1cbd 606e 3b3d 7f77 3abd a953 77be
000001a0: d528 a73b 8011 5cbe 266b 2cbe 0f67 b83d
000001b0: a142 1a3c 0bb0 aebc bf9c a83d df68 003e
000001c0: 0323 03bc 7cdc 303e 3afa e03d a09c b13d
000001d0: 38ea 57bd 7856 e0bd 83f0 7cbe 8b5f 793d
000001e0: d75c 07be 3622 9ebd c076 44bd 71ca c93d
000001f0: 8a9a 633d f76f b3bd bc7d fdbd 0482 9f3d
00000200: 0c3a ac3d 692c 5bbd d67a 9fbd b397 73bd
00000210: 2bff bdbb 4b4e 3d3e d1aa d23d fd50 19be
00000220: cb55 b7bd 7df9 d7bc 67e7 3ebe 6911 713e
00000230: fd07 2c3e 8a1b 003e 25a0 d9bd ff44 b5bd
00000240: 231a 003e 3b71 d13d c8f4 1f3e 52e5 b2bd
00000250: f865 80bb 302c 493c a531 92bc dc76 34be
00000260: 5e46 a03b 4f5b 373e aef6 1f3d 22e9 63bd
00000270: 9430 49bc 2b8f 34bd 4426 aabd 720d 3abd
00000280: 7ad3 f13d 9e34 2dbd ea8d 2cbe ffdd e63d
00000290: 3e2a c73d 7387 21be 9ea0 08be 3e2d f43d
000002a0: 4822 913d 64f3 893d 9c99 b73d d508 933d
000002b0: ff31 2ebe f80d 843d e730 d93d 6800 ffbd
000002c0: 79fb 0abd 3a18 a33d e74a 6b3b 6827 58be
000002d0: 9001 0fbe 65ca 393e 7073 9e3d 0870 93bd
000002e0: 429f 343d b37b 8a3b 5444 32bd 064b ccbd
000002f0: d127 d23d e25c b73c 6f27 1b3c f00e 1abd
00000300: c9a7 31be f334 76bd 8b40 813d 6c90 013e
00000310: 494f 123d e9fa 333b 48e1 543d 019d 4ebd
00000320: 5e5c b7bd ed73 c73d 0494 883c fce3 243e
00000330: 35b7 a9bc c898 8ebc 6c67 4ebe 7d12 133e
00000340: 66ef 753d 9e92 453e 4f7c 313c fc24 fe3c
00000350: cfc0 323e bccb f6bd f370 1bbe efa5 da3c
00000360: cf0c 43bd d2ce 2bbe 4e3d 3fbc 7ee0 1fbe
00000370: 481e 243e 2506 aabd 436d c93d a615 59bd
00000380: e059 913d 56dc 033d 0027 263e 47fd 183e
00000390: 3064 c9bd 0bfa 833e def4 5abd ebca 113e
000003a0: 38cb 8fbc 40d9 043e 3232 cdbc 3941 61bc
000003b0: 3429 1f3e 55a8 1bbe 2087 12be 12b0 a23d
000003c0: 94b6 043d e989 7f3e 2ef0 903d 014b 8d3d
000003d0: 3cda 1b3e a1ef b9bd 7557 9dbe 79ee 76be
000003e0: 220e 0fbe 68b9 95bc 391e e33d ac25 4abe
000003f0: 9af0 1b3e 4058 803e 4137 24be 5407 0d3e

lstm.bias_ih_l1 f4 [128]
0.21380161 0.15836188 0.079700425 0.17494436 -0.11789308 -0.030971475 0.0019106636 -0.19879298
-0.11746966 0.115123965 -0.0010305969 0.07156759 0.19803105 0.036893737 -0.03435711 -0.061977234
0.03721438 0.06402027 -0.17870532 0.20041788 -0.20397024 0.15765788 0.11886261 -0.08587056
0.10565543 -0.101791605 -0.08964665 -0.12767698 -0.044791594 0.14681777 0.0782164 -0.018015517
0.07613194 -0.021748917 -0.10355069 -0.048287597 0.10933093 -0.0445004 0.118728206 -0.019045314
0.23483223 0.13378905 0.19355935 0.05756893 0.05228023 -0.033251587 0.1391485 0.17957297
0.29693368 0.18413036 -0.020125596 0.1800828 0.17542061 0.045865025 0.24201825 0.016706502
0.19085608 0.1089568 0.17430848 0.10414326 -0.050942063 0.087625585 0.25698793 -0.056259148
0.108273745 0.08494128 -0.031387836 0.15794617 -0.11576624 0.05837415 -0.11120662 -0.023765262
-0.012297103 0.058227655 -0.011647737 0.04609077 0.14560129 0.008058128 0.15902549 0.12002483
0.063830234 -0.09997749 -0.12315129 -0.02868317 -0.1348578 0.00735849 0.09298487 -0.044965107
0.20251077 -0.10162736 -0.11733918 0.15271111 0.04075676 -0.1309375 0.10474333 -0.031568166
0.052206963 0.013575729 0.2327315 -0.08771491 0.024586344 0.014582212 0.16595161 -0.07189661
0.09309299 0.033072863 -0.071620636 0.050141376 0.041951973 0.27889138 0.19437301 0.19498894
0.14746992 0.24038938 -0.015559773 0.36979488 0.120490834 -0.012908853 -0.0499411 0.053744975
-0.002642853 0.03599856 0.18942733 -0.053025775 0.023018846 0.2387779 0.07476054 -0.021570096
00000000: cfee 5a3e 9e29 223e fa39 a33d 9d24 333e
00000010: ed71 f1bd e4b7 fdbc 3b6f fa3a 6390 4bbe
00000020: ef93 f0bd 1dc6 eb3d 1815 87ba 0792 923d
00000030: a7c8 4a3e e31d 173d 0aba 0cbd d7db 7dbd
00000040: 1b6e 183d 0f1d 833d 87fe 36be 583a 4d3e
00000050: 93dd 50be 1171 213e 3d6e f33d e7dc afbd
00000060: e061 d83d 1e78 d0bd aa98 b7bd c1bd 02be
00000070: 6477 37bd 6657 163e ec2f a03d 4795 93bc
00000080: 10eb 9b3d c92a b2bc 6212 d4bd 37c9 45bd
00000090: e5e8 df3d 0d46 36bd c627 f33d eb04 9cbc
000000a0: dc77 703e ffff 083e 6c34 463e 66cd 6b3d
000000b0: cb23 563d d132 08bd f27c 0e3e fae1 373e
000000c0: b107 983e ab8c 3c3e 6fde a4bc a067 383e
000000d0: 76a1 333e f7dc 3b3d a2d3 773e 13dc 883c
000000e0: c76f 433e be24 df3d ec7d 323e 1049 d53d
000000f0: a0a8 50bd 0b75 b33d ec93 833e fe6f 66bd
00000100: a0be dd3d b2f5 ad3d 8890 00bd a4bc 213e
00000110: da16 edbd bc19 6f3d 4cc0 e3bd 5eaf c2bc
00000120: ca79 49bc 1f80 6e3d 26d6 3ebc adc9 3c3d
00000130: 8118 153e 3d06 043c 94d7 223e 94cf f53d
00000140: 6db9 823d 00c1 ccbd be36 fcbd f8f8 eabc
00000150: 2a18 0abe 7d1f f13b da6e be3d 552d 38bd
00000160: fc5e 4f3e 0122 d0bd 864f f0bd 4d60 1c3e
00000170: 8ff0 263d 7b14 06be ac83 d63d 9f4d 01bd
00000180: f8d6 553d bc6c 5e3c 2b51 6e3e e0a3 b3bd
00000190: 4d69 c93c 3bea 6e3c 38ef 293e 883e 93bd
000001a0: 8aa7 be3d 6977 073d d7ad 92bd 0b61 4d3d
000001b0: d5d5 2b3d daca 8e3e b809 473e 2eab 473e
000001c0: 5b02 173e a228 763e 6bee 7ebc c155 bd3e
000001d0: e6c3 f63d a77f 53bc 0a8f 4cbd b123 5c3d
000001e0: b733 2dbb 3a73 133d 3df9 413e 8e31 59bd
000001f0: 0592 bc3c 3282 743e 0e1c 993d c5b3 b0bc

lstm.bias_hh_l1 f4 [128]
0.08090462 -0.097969346 0.07101906 -0.006332319 -0.12014148 0.1291212 -0.15783632 0.013501558
-0.055598676 -0.003758886 0.09447267 -0.14027876 0.18003394 0.06925994 0.088358045 0.01915273
0.07190312 0.14182732 -0.0015487422 -0.09963999 -0.059585 0.055209257 -0.06414525 0.07283227
0.08500843 0.09131513 -0.16905609 0.060473796 0.060036782 -0.08108546 0.08009415 0.10109292
0.051796973 -0.047279447 -0.07118708 0.0008144937 0.2167159 0.20161657 -0.09275139 0.12535958
0.06391615 0.22228627 0.16439334 0.063763626 -0.07962689 0.2412698 -0.021024305 0.2416885
0.20965849 -0.048037123 -0.123805076 0.25589022 -0.10416831 -0.09722766 0.25265083 -0.00055822753
0.036469713 0.23236191 -0.020245293 0.012193358 0.10445684 0.14888102 0.045963414 0.08045811
-0.006522772 0.12277956 0.11707859 0.21736196 0.050869424 -0.09388336 0.08076257 -0.079675145
-0.16210587 -0.051922865 0.17027804 -0.14115475 -0.11999238 0.052516617 -0.057908237 -0.15838923
0.00034836764 0.0085584 0.12886259 -0.03753107 -0.016404394 0.11763397 -0.051441137 -0.13169816
0.14573725 0.0024233141 0.1597253 -0.14717251 -0.1220297 -0.1468855 -0.0010153755 -0.15575881
0.26481625 -0.041303392 0.10202653 -0.03718312 0.019194229 -0.112460986 -0.05090733 0.13889472
-0.037249364 0.30927917 0.17931302 0.046059363 0.18821198 -0.05532015 0.079906486 0.043009352
0.0058960905 0.26250142 0.13465244 0.42209935 -0.044747137 0.09643378 0.15003875 0.04818256
0.22352298 0.28369617 0.15038796 0.11144611 0.22051108 0.06709263 0.19639136 -0.011531986
00000000: 52b1 a53d 27a4 c8bd 7172 913d 587f cfbb
00000010: bc0c f6bd 5938 043e d89f 21be a435 5d3c
00000020: 70bb 63bd a457 76bb e37a c13d 3ca5 0fbe
00000030: d15a 383e 28d8 8d3d 10f5 b43d 30e6 9c3c
00000040: f141 933d 2e3b 113e 2aff caba 0d10 ccbd
00000050: 670f 74bd 1a23 623d 965e 83bd 1629 953d
00000060: e618 ae3d 6d03 bb3d 0a1d 2dbe 5fb3 773d
00000070: 21e9 753d 2210 a6bd 6708 a43d ce09 cf3d
00000080: 1029 543d 18a8 41bd 88ca 91bd bf83 553a
00000090: c6ea 5d3e 9374 4e3e 71f4 bdbd 435e 003e
000000a0: 78e6 823d 039f 633e ba56 283e 8196 823d
000000b0: 6c13 a3bd 6e0f 773e 2a3b acbc 317d 773e
000000c0: b7b0 563e 93c2 44bd 848d fdbd 0b04 833e
000000d0: 3256 d5bd 4c1f c7bd 735b 813e 0456 12ba
000000e0: 4461 153d 48f0 6d3e 75d9 a5bc a6c6 473c
000000f0: 78ed d53d 4474 183e 2244 3c3d 39c7 a43d
00000100: fabc d5bb da73 fb3d e6c6 ef3d 2294 5e3e
00000110: 755c 503d eb45 c0bd d966 a53d b92c a3bd
00000120: 15ff 25be 12ad 54bd 5e5d 2e3e df8a 10be
00000130: 91be f5bd aa1b 573d 3031 6dbd c930 22be
00000140: 1da5 b639 8838 0c3c 8ef4 033e 2eba 19bd
00000150: 8262 86bc 14ea f03d f1b3 52bd e2db 06be
00000160: 253c 153e 77d0 1e3b 078f 233e 64b4 16be
00000170: b5ea f9bd 2769 16be 5916 85ba 3d7f 1fbe
00000180: ff95 873e bf2d 29bd 49f3 d03d 544d 18bd
00000190: 373d 9d3c f251 e6bd 3484 50bd 6b3a 0e3e
000001a0: ca92 18bd d759 9e3e d59d 373e bea8 3c3d
000001b0: a4ba 403e 6297 62bd 03a6 a33d 932a 303d
000001c0: fe33 c13b 9666 863e 54e2 093e 681d d83e
000001d0: c648 37bd 137f c53d c2a3 193e 135b 453d
000001e0: 35e3 643e a040 913e 4dff 193e dc3d e43d
000001f0: a8cd 613e dc67 893d d11a 493e a8f0 3cbc

fc.weight f4 [5, 32]
-0.19825085 -0.17549397 0.1932895 0.17747526 0.027496243 0.20405608 -0.06928415 0.060302343
-0.2163617 0.18831564 0.050407086 0.22566928 0.2074373 0.24757601 -0.0913406 0.12887245
-0.089033335 0.100210406 -0.20909041 0.24484833 -0.0028677357 -0.15087843 -0.19639362 -0.15988895
0.022096857 0.03593533 0.14269009 -0.014141107 -0.013655833 0.048504222 -0.0077161584 0.098513044
-0.21377024 -0.15944542 0.15464148 -0.06069825 0.08158242 0.17900282 -0.051604968 -0.02590504
-0.15736043 0.20212434 0.19214612 0.10636972 0.12904185 0.25749332 -0.1803046 0.086864695
-0.060240794 0.1302228 -0.0043754685 0.07668219 0.17592122 -0.21805267 -0.27177033 -0.077838466
0.13984883 -0.08059549 0.05207328 0.03525907 0.12222811 0.0607434 0.04641869 0.12117114
-0.2566421 -0.006141782 0.17422871 0.058732707 0.18930306 0.15476494 -0.06615973 -0.019263351
0.026612112 0.118714914 0.23949794 -0.0014978877 0.21947935 0.12824593 -0.1944756 -0.01538019
-0.19017892 0.008671576 -0.088487454 -0.111862876 0.11169285 -0.027773919 -0.29360265 -0.11208119
0.19503948 -0.10699014 0.13472901 0.018055681 0.14393584 0.24447648 0.13264827 0.026627295
-0.1136015 -0.13327973 0.11047291 0.18503515 0.1282783 0.16912784 -0.1236216 -0.19201161
-0.15298223 -0.2509784 0.016455775 0.16182265 0.09354068 -0.101897456 0.14723055 0.011938864
-0.23627889 0.03210279 -0.03404588 -0.22577086 0.11479436 0.035829578 -0.07592144 -0.0027781755
0.044814315 -0.28078958 0.23639259 -0.27791664 -0.03223178 0.106663495 0.2553489 0.104787104
-0.20164022 -0.14387693 0.06676518 0.025425237 0.018697882 0.025739219 -0.21170907 -0.14704934
0.0092064785 0.11553542 0.09850515 0.18489167 0.12743486 0.14439164 0.07146824 0.22082418
0.029131921 0.27489585 -0.20396213 0.16858277 0.02549683 -0.19751924 -0.22538993 -0.05208593
-0.082091704 -0.0699472 0.08184957 -0.10633725 0.22364216 -0.11336722 -0.12328995 0.18274623
00000000: 4502 4bbe b1b4 33be afed 453e 13bc 353e
00000010: cd3f e13c 14f4 503e d9e4 8dbd 97ff 763d
00000020: ec8d 5dbe d1d5 403e a977 4e3d d915 673e
00000030: 726a 543e 9184 7d3e c810 bbbd 24f7 033e
00000040: 1c57 b6bd 1d3b cd3d cc1b 56be 85b9 7a3e
00000050: 9ff0 3bbb e07f 1abe 691b 49be eeb9 23be
00000060: 7804 b53c ed30 133d 5a1d 123e 1ab0 67bc
00000070: b7bc 5fbc 5dac 463d d4d7 fcbb 35c1 c93d
00000080: 96e6 5abe a945 23be 565a 1e3e ba9e 78bd
00000090: af14 a73d 844c 373e bb5f 53bd ce36 d4bc
000000a0: 1823 21be aff9 4e3e f4c1 443e 5ed8 d93d
000000b0: 8c23 043e 2ad6 833e c5a1 38be 1ee6 b13d
000000c0: 0dbf 76bd 2059 053e 1760 8fbb 8d0b 9d3d
000000d0: b124 343e 3349 5fbe 7b25 8bbe c669 9fbd
000000e0: 8834 0f3e 400f a5bd cb4a 553d d16b 103d
000000f0: bb52 fa3d 12ce 783d 8621 3e3d 9328 f83d
00000100: 9866 83be 0041 c9bb 0369 323e b591 703d
00000110: a9d8 413e b37a 1e3e c17e 87bd 2dce 9dbc
00000120: a501 da3c ce20 f33d f33e 753e c554 c4ba
00000130: 32bf 603e e752 033e 9d24 47be 31fd 7bbc
00000140: 43be 42be 3a13 0e3c e938 b5bd 5d18 e5bd
00000150: 39bf e43d 2186 e3bc 1653 96be d38a e5bd
00000160: 6eb8 473e a61d dbbd 67f6 093e 82e9 933c
00000170: eb63 133e 0b58 7a3e f3d4 073e 7c21 da3c
00000180: e7a7 e8bd 7b7a 08be 9f3f e23d db79 3d3e
00000190: 635b 033e d92f 2d3e 522d fdbd b19e 44be
000001a0: 60a7 1cbe 3e80 80be 43ce 863c d6b4 253e
000001b0: 4292 bf3d 9daf d0bd 9bc3 163e 3a9b 433c
000001c0: 18f3 71be 377e 033d b173 0bbd 7a30 67be
000001d0: 4e19 eb3d 09c2 123d b37c 9bbd 0d12 36bb
000001e0: 378f 373d a7c3 8fbe e610 723e 174b 8ebe
000001f0: 7905 04bd 6472 da3d 17bd 823e 9f9a d63d
00000200: c67a 4ebe 7954 13be 2fbc 883d 9648 d03c
00000210: 4d2c 993c 0edb d23c 43ca 58be 1a94 16be
00000220: c5d6 163c d69d ec3d 11bd c93d 3e54 3d3e
00000230: 497e 023e 67db 133e f15d 923d bc1f 623e
00000240: 11a6 ee3c 26bf 8c3e 73db 50be f6a0 2c3e
00000250: bade d03c 7c42 4abe 9ecc 66be 0e58 55bd
00000260: b21f a8bd 7a40 8fbd bfa0 a73d 58c7 d9bd
00000270: 7302 653e 132d e8bd 717f fcbd d421 3b3e

fc.bias f4 [5]
0.04675297 0.055859353 -0.037893485 -0.09294624 0.07929007
00000000: 0b80 3f3d c7cc 643d 3336 1bbd 995a bebd
00000010: d562 a23d
